Optional1_Sferic/checkpoints/checkpoint-0.0390-0.1224.pth (torch, 145058 bytes, 12 tensors)

layers.0.weight f4 [128, 4]
000000 33 4f 1e ba 70 44 06 ba 6a ac 22 bb 50 7c ed 3a
       -0.0006039023 -0.00051218923 -0.0024822005 0.0018118713
000010 14 63 0f ba f5 1d ba 3a d7 df 1c 3b 72 b8 dc b9
       -0.0005469781 0.0014199602 0.002393713 -0.00042099092
000020 bb cc eb 3a 06 57 6f ba e6 53 38 3b 40 3e 42 3a
       0.0017990092 -0.0009130094 0.002812618 0.00074097887
000030 c3 e4 2f bb 0f 17 c3 3a 40 29 8a 3a f3 99 21 b9
       -0.0026839233 0.0014884191 0.0010540858 -0.00015411507
000040 08 07 15 bb c6 d7 c8 ba dd 2d 0a bb 7b 5f af 39
       -0.0022739787 -0.0015323095 -0.0021084466 0.0003344974
000050 f2 9d 2e 3a 67 7c 36 3b 86 58 be 3a 20 d5 91 ba
       0.0006661109 0.0027845146 0.0014522232 -0.0011126138
000060 a1 4f 99 39 99 e6 84 ba db b1 be 3a be 17 aa 3a
       0.00029241762 -0.0010139524 0.0014548855 0.0012977046
000070 fd 00 b1 b9 7b 89 12 3b 48 9e e2 ba 17 83 a6 b9
       -0.00033760807 0.0022359777 -0.0017289603 -0.00031759657
000080 17 6a 14 3a 57 cf 0b bb 5f 76 d8 b9 ef ec d1 3a
       0.00056615606 -0.00213333 -0.00041286924 0.0016016046
000090 49 a1 6e ba 6c 13 e6 ba ce 93 80 ba a3 21 40 bb
       -0.0009103013 -0.0017553396 -0.0009809674 -0.0029316924
0000a0 96 d3 f8 3a 0b 83 87 3a 8d ee 49 ba 38 00 c5 b9
       0.0018983956 0.0010338736 -0.00077030883 -0.0003757493
0000b0 28 b7 a7 3a d8 d0 55 3a ee 53 d3 3a d5 c5 36 bb
       0.0012795674 0.00081564253 0.0016123035 -0.0027888913
0000c0 97 63 03 3b 79 98 27 3b 2d 10 2d bb 62 92 03 3b
       0.0020048374 0.0025573059 -0.0026407347 0.0020076265
0000d0 ff 4d e4 ba e8 d5 fe ba 9f e9 bb 3a ad 5e f0 ba
       -0.0017418264 -0.0019442411 0.0014336592 -0.0018338762
0000e0 9a 93 cd 38 6f d7 e1 3a 62 87 43 bb a9 17 8f 3a
       9.802655e-05 0.0017230342 -0.0029835333 0.0010917085
0000f0 28 52 02 3b 3b f6 75 ba c7 3a f0 ba 7e 0e 1b ba
       0.0019885395 -0.00093826995 -0.0018328064 -0.000591494
000100 14 b7 2c 3b be 54 cd 3a 77 8a 12 bb f2 da b9 b9
       0.002635424 0.0015665514 -0.0022360364 -0.00035449077
000110 36 9a be b9 09 2c d1 ba e0 81 af 3a 4e 87 d9 3a
       -0.0003635452 -0.0015958558 0.0013390146 0.001659611
000120 2e 2c a0 ba 3e 97 2e bb e3 37 27 bb d1 ff 63 3a
       -0.0012220198 -0.002664044 -0.0025515489 0.00086974824
000130 c0 07 87 39 57 b7 00 39 e4 ec ed 39 78 27 e8 ba
       0.0002575498 0.0001227533 0.0004538066 -0.0017711958
000140 e4 60 a9 ba ee 5a a6 ba 18 a3 f7 3a 34 16 8a ba
       -0.0012922552 -0.0012691894 0.001889321 -0.0010535182
000150 c5 7f ab ba d0 82 fb 3a ce cd 32 3b 14 20 e7 ba
       -0.0013084343 0.0019188765 0.0027283314 -0.0017633461
000160 66 8a 07 3b 1e 72 94 3a fc 52 ea 3a 43 5c e9 ba
       0.0020681857 0.0011325513 0.0017877514 -0.0017803985
000170 63 20 20 ba 9a 07 34 bb 84 cb 3d bb 14 24 5b ba
       -0.00061083416 -0.0027470351 -0.0028960416 -0.0008359563
000180 57 db 0d bb e1 8d 2d bb dc ff 50 ba 0f 81 89 ba
       -0.002164563 -0.0026482271 -0.00079726963 -0.0010490733
000190 68 e5 41 3a 25 0e 8f 3a ff 95 3e ba 27 a7 27 3b
       0.000739655 0.001091425 -0.0007270276 0.0025581808
0001a0 04 8b 97 ba a2 44 d5 39 83 cb 3d 3b 41 64 25 3b
       -0.0011561816 0.0004067766 0.0028960414 0.0025236758
0001b0 ad af 27 3b 5d 56 b5 39 eb b9 91 ba b9 7c 12 3b
       0.0025586889 0.00034587356 -0.001111803 0.0022352173
0001c0 d1 57 99 ba c2 74 92 3a 90 df 15 b9 1d bb 01 ba
       -0.0011699145 0.0011173713 -0.00014293031 -0.00049488415
0001d0 4e a3 b4 ba 0d f9 37 ba b9 7b f7 ba ff a7 d6 3a
       -0.0013781579 -0.00070180075 -0.0018881477 0.0016376971
0001e0 51 ba 95 ba 18 06 f8 3a 56 d4 33 bb 7c 23 81 39
       -0.0011423324 0.0018922715 -0.0027439795 0.00024631235
0001f0 cb 8e 96 ba 04 91 0e bb 5d 13 1f bb 61 e7 b1 3a
       -0.0011486647 -0.0021753917 -0.0024273016 0.0013572985
000200 d1 ee d7 39 ad 5e fa ba 5d 0c 76 ba 6b d0 3a ba
       0.00041185928 -0.0019101702 -0.00093859975 -0.00071263936
000210 54 a3 86 b9 6a d2 9b 3a ad c7 06 bb 6d 5f 27 bb
       -0.0002568016 0.001188827 -0.0020565793 -0.0025539056
000220 30 5c 35 b9 08 e8 d3 38 85 cc 09 39 c2 ea 93 38
       -0.00017295848 0.00010104483 0.00013141528 7.053233e-05
000230 7e d4 b2 b9 9a cf 87 ba 8e 7f fc b8 b0 d5 1b bb
       -0.00034109125 -0.0010361553 -0.00012040055 -0.002377849
000240 81 d1 e5 ba 40 1f 40 3b db 6d 2b ba 9e 65 0b bb
       -0.001753375 0.0029315501 -0.0006539502 -0.0021270285
000250 bf b5 1f 3b 7f 7f a5 ba 06 be 61 3a 93 53 43 3b
       0.0024369804 -0.0012626498 0.00086113845 0.0029804453
000260 2f eb f2 3a 04 5d 26 3a 6b 5c 23 bb 19 e0 06 3b
       0.0018533225 0.0006346258 -0.0024926912 0.002058035
000270 cc b7 0c bb fb a4 50 ba 16 b1 33 3a d4 7d 38 b9
       -0.0021471856 -0.00079591543 0.0006854696 -0.00017594482
000280 e8 2b 64 ba ff fd 0e 3b cc 2d 3f 3b 29 a4 b3 3a
       -0.00087040523 0.0021818874 0.0029171584 0.001370554
000290 6d cc 18 bb dc 30 a3 ba df b2 04 3a d8 4b e0 3a
       -0.0023315207 -0.0012450474 0.0005062054 0.0017112447
0002a0 37 5c 57 3a b6 c7 28 ba 28 b4 37 bb 58 53 f0 39
       0.000821534 -0.00064384507 -0.0028030965 0.00045838463
0002b0 43 65 ea ba 92 33 22 bb fb 95 0b ba e8 bd ab 3a
       -0.0017882962 -0.0024749977 -0.0005324778 0.0013102861
0002c0 da 9d 30 bb 9e 11 fa ba 76 e4 8b 3a bb 0b fa ba
       -0.0026949556 -0.0019078737 0.0010672945 -0.0019076982
0002d0 03 fe 8c 38 b9 0f 66 3a 54 1d 30 bb a4 c3 7b 3a
       6.7230336e-05 0.00087761466 -0.002687295 0.0009604043
0002e0 ef da d9 39 3c 6e 77 ba 48 b4 a3 3a 5f 7f af b9
       0.00041552584 -0.00094387284 0.0012489641 -0.000334735
0002f0 c8 28 f9 b9 32 d5 10 bb 27 21 41 bb 8a a0 41 3b
       -0.00047523365 -0.002209973 -0.0029469223 0.0029545152
000300 08 4f 0d bb d1 46 28 bb 85 ef 11 bb 79 f8 2b 3b
       -0.0021562 -0.0025676975 -0.002226801 0.002624063
000310 3c 44 fa ba 3b 66 96 3a c9 e2 f7 3a 0d ed f9 b9
       -0.0019093822 0.0011474559 0.0018912192 -0.00047669598
000320 21 b9 09 3b fa 04 02 3b 41 f1 cf 38 eb 33 17 ba
       0.0021014886 0.0019839392 9.915466e-05 -0.0005767929
000330 53 7e ed 3a 76 ce c5 b9 49 3f 40 3b f9 19 39 bb
       0.0018119313 -0.00037728593 0.0029334596 -0.002824424
000340 7c bb a5 3a 07 5c bc 3a 00 fc 13 bb c8 8c ce b8
       0.0012644376 0.0014370688 -0.0022580624 -9.849068e-05
000350 6a 52 44 39 25 40 78 3a 7f 64 2a ba 96 c3 29 3b
       0.00018722718 0.00094700075 -0.00064999604 0.0025903932
000360 cd a1 04 3b 20 31 32 3b 2d df 32 3b 2a ff 39 bb
       0.0020238042 0.0027189925 0.0027293668 -0.002838085
000370 a6 51 bf ba 59 90 0f bb f1 ea 42 bb a1 21 ed ba
       -0.0014596477 -0.0021906106 -0.0029742087 -0.0018091687
000380 c6 5b 3d 3b a2 a4 2e 3b 3e 11 41 3b 15 ef 3c bb
       0.0028893813 0.0026648422 0.002945974 -0.0028829027
000390 13 a5 17 3b 03 83 d4 ba a4 c7 c2 37 56 a5 3d 3b
       0.0023139163 -0.0016213361 2.3219567e-05 0.002893766
0003a0 d3 63 2e bb 70 1d a3 b8 45 86 aa ba 5c 23 02 b8
       -0.0026609793 -7.777929e-05 -0.0013009986 -3.1027346e-05
0003b0 71 ef 00 3b 7b 0f 0d bb 5f c4 80 ba 2e 4c 21 39
       0.0019673968 -0.002152412 -0.0009824148 0.00015382536
0003c0 25 e9 e5 3a fe 9e c4 b9 86 f6 09 3b 07 bf 0f 3a
       0.0017540796 -0.00037502492 0.002105148 0.00054834824
0003d0 81 c8 fe 38 70 9b 12 bb 51 89 22 3b 2a d0 51 3a
       0.000121490106 -0.002237048 0.0024801085 0.0008003736
0003e0 c4 11 87 39 24 fc 92 ba 91 54 07 bb 00 2d 3c bb
       0.00025762443 -0.001121406 -0.002064977 -0.0028713346
0003f0 d7 7a 24 39 a6 d7 3f 3b 99 29 e9 b8 5f 72 d7 3a
       0.0001568602 0.0029272824 -0.00011118054 0.0016437283

layers.0.bias f4 [128]
000000 d9 77 db b5 59 62 e4 34 99 d6 a8 33 e9 15 71 33
       -1.6351652e-06 4.2539867e-07 7.862145e-08 5.6132112e-08
000010 b9 6b 01 34 44 3e 75 b5 cf 23 59 b4 86 70 c1 33
       1.205325e-07 -9.136022e-07 -2.0222727e-07 9.007731e-08
000020 45 8c a0 b1 ce 5f 3c b5 bc fa a4 34 f9 7e 98 34
       -4.6725597e-09 -7.017487e-07 3.0729814e-07 2.840459e-07
000030 9e 70 8e b3 c0 50 97 33 f9 36 ec b4 9b 0c 3c 34
       -6.632875e-08 7.046174e-08 -4.3998423e-07 1.751345e-07
000040 0a b6 ba b3 e7 80 fe b3 95 17 72 b3 06 ad 38 36
       -8.694413e-08 -1.1851244e-07 -5.6366463e-08 2.751885e-06
000050 e0 a0 4a b4 d3 d8 1c b5 ce 7a d1 33 d0 6b 22 35
       -1.8871242e-07 -5.843005e-07 9.754659e-08 6.050659e-07
000060 86 d8 48 34 9b be d7 35 2b a6 04 35 39 b2 3a b3
       1.8705222e-07 1.6074222e-06 4.941564e-07 -4.3468592e-08
000070 34 71 36 b5 5d 3b 89 31 fd 9e a4 34 52 d0 0b 35
       -6.7965016e-07 3.9939736e-09 3.066306e-07 5.208468e-07
000080 3e 93 59 b4 9a 01 2a b4 58 56 9f b5 11 14 3f b5
       -2.0263266e-07 -1.5833066e-07 -1.1871552e-06 -7.1182245e-07
000090 40 15 6b b4 11 d5 88 32 96 e7 c5 33 4e cd cc b4
       -2.1893811e-07 1.5929375e-08 9.2156526e-08 -3.814734e-07
0000a0 10 c0 8a 34 c0 66 3f b4 a1 f8 36 36 7f a9 26 35
       2.5844247e-07 -1.7825641e-07 2.7264834e-06 6.208647e-07
0000b0 6f f3 c7 32 a5 77 7a 35 76 f1 4a 34 46 4e f9 b3
       2.327735e-08 9.3306363e-07 1.8900559e-07 -1.1609204e-07
0000c0 08 8a 49 b4 71 2e c1 31 a5 cc c4 b4 9f 7e a7 34
       -1.8769799e-07 5.622319e-09 -3.6656743e-07 3.1198303e-07
0000d0 da 3a c5 b4 18 3c cf 34 82 6c 69 b4 04 69 4a 34
       -3.673693e-07 3.8600479e-07 -2.1739291e-07 1.885092e-07
0000e0 48 f3 79 b3 2a 6f 48 32 a0 d3 64 33 e8 83 77 b4
       -5.8196093e-08 1.1666808e-08 5.327786e-08 -2.3051655e-07
0000f0 ea bc 41 b3 a8 1e ea b3 3f 95 9b 35 13 61 f1 b3
       -4.510813e-08 -1.09020505e-07 1.1591836e-06 -1.1240095e-07
000100 9c e0 6e b2 44 98 1e 35 f7 46 82 33 2f 30 bb 33
       -1.3904494e-08 5.908116e-07 6.066505e-08 8.7166306e-08
000110 8d a9 89 34 d4 61 3c b2 ef 3f 3a 34 4d 25 c3 b3
       2.5641603e-07 -1.0965284e-08 1.7345859e-07 -9.08718e-08
000120 6b 87 78 b1 c1 5f 45 b4 82 af 7c b5 08 96 d4 35
       -3.6165726e-09 -1.838189e-07 -9.4132713e-07 1.5838896e-06
000130 de 32 71 b4 f2 ff 53 b4 4e a5 79 b4 31 8e a2 34
       -2.246338e-07 -1.9744019e-07 -2.325007e-07 3.027831e-07
000140 76 b2 02 35 23 8c fc b4 23 ab 7b b2 95 60 91 35
       4.868847e-07 -4.704062e-07 -1.4649035e-08 1.0831451e-06
000150 3c ed 1c b4 6c 79 b2 b4 1e d4 fc 35 e1 d2 ae b1
       -1.4614938e-07 -3.324343e-07 1.8837197e-06 -5.0880407e-09
000160 4a f5 0a b4 14 12 4c b3 fa b5 0b 34 42 c4 5a b3
       -1.2941487e-07 -4.7513893e-08 1.3011586e-07 -5.0935576e-08
000170 71 06 bc 34 b9 41 fd 34 81 57 a7 34 45 39 1a 32
       3.5022416e-07 4.7172742e-07 3.1169841e-07 8.977001e-09
000180 87 0a 0d b3 0e 2c 04 b5 47 23 07 b4 57 4c 11 b5
       -3.2838695e-08 -4.923794e-07 -1.2585689e-07 -5.41278e-07
000190 30 52 b5 34 41 23 a2 33 e6 31 31 b4 d3 9b 77 b4
       3.3773676e-07 7.5501255e-08 -1.6502563e-07 -2.3060356e-07
0001a0 4c 59 66 33 18 90 b8 b4 22 02 99 32 69 0a da b4
       5.3632263e-08 -3.4377513e-07 1.7812514e-08 -4.061324e-07
0001b0 95 17 9e 34 7b 12 f8 32 86 c7 73 b5 ff d6 48 b5
       2.9446952e-07 2.8879404e-08 -9.08149e-07 -7.4818666e-07
0001c0 31 26 e9 34 7f 80 7c b4 d3 79 0b b5 82 c3 f3 b4
       4.342742e-07 -2.3516075e-07 -5.195881e-07 -4.5404528e-07
0001d0 83 46 0a 35 77 57 21 b5 7a d3 5a 35 b0 c1 e4 b3
       5.1511614e-07 -6.010445e-07 8.151907e-07 -1.0652309e-07
0001e0 e5 14 53 b3 5b 75 e9 b3 e4 91 44 b5 a4 dc fa 32
       -4.914627e-08 -1.0871255e-07 -7.322799e-07 2.9204166e-08
0001f0 37 69 a5 b5 fc ec 8c b2 d6 b5 54 b5 dc 88 99 b3
       -1.232408e-06 -1.6405913e-08 -7.924076e-07 -7.149512e-08

layers.2.weight f4 [128, 128]
000000 1d 03 20 b9 9b 9d e4 b9 cc fa 5a 39 ff 9d cf 39
       -0.00015259949 -0.00043604974 0.00020883529 0.00039599833
000010 75 53 01 3a 8b 18 0a ba 28 c5 8d 36 d1 9d 0a ba
       0.00049333955 -0.00052679394 4.2250795e-06 -0.00052877987
000020 d0 c6 fd b9 91 17 af b9 a2 f2 ca 39 80 82 e5 b7
       -0.00048404047 -0.0003339616 0.00038709218 -2.7359696e-05
000030 3a 50 ec 39 95 5a 8b b9 f8 6f 11 b9 61 88 e0 b9
       0.000450732 -0.00026579635 -0.00013869989 -0.0004282622
000040 9b 39 c7 b9 7e 0b 84 39 89 b3 b2 37 28 3c 93 b9
       -0.00037999157 0.00025185564 2.1302856e-05 -0.00028082845
000050 62 61 c1 39 b3 1e a7 39 68 c4 a6 39 e7 9c f5 39
       0.00036884384 0.00031875595 0.0003180832 0.00046846943
000060 0b 81 92 b9 cc 0f 96 b8 86 c1 fe 37 0b 6b 94 39
       -0.00027943435 -7.1555e-05 3.0369276e-05 0.00028308513
000070 cf ed 96 b9 25 53 34 38 82 c6 00 3a 95 07 bb 39
       -0.0002878741 4.299278e-05 0.00049123925 0.00035673068
000080 50 05 c6 39 37 7a fa b9 8c e5 cf 38 15 54 04 3a
       0.0003776946 -0.00047774773 9.9132856e-05 0.00050479296
000090 29 c7 26 b9 7c db b9 b9 cc 3e dc b9 4e c2 e6 39
       -0.00015905187 -0.00035449478 -0.00042008457 0.00044013787
0000a0 e3 c5 f9 b9 d9 86 d6 b9 10 ee ea 39 b2 40 26 b8
       -0.00047640418 -0.0004091773 0.00044809328 -3.9637736e-05
0000b0 62 b5 c3 b9 1b dd fe b9 38 07 0a ba e3 53 11 b9
       -0.0003732844 -0.00048611392 -0.0005265358 -0.00013859528
0000c0 76 19 08 ba ea c5 a8 b8 2a a6 bc b9 83 23 88 39
       -0.0005191782 -8.0477286e-05 -0.00035981956 0.000259664
0000d0 7a ce 22 b8 f3 70 10 39 18 f5 96 39 63 42 d3 39
       -3.8816106e-05 0.00013774987 0.0002879284 0.00040294518
0000e0 81 73 f9 38 a4 ec 3b b7 ac 82 00 3a 1f 6e 8f b9
       0.000118947595 -1.1201166e-05 0.0004902284 -0.00027357132
0000f0 3e 75 cb 39 6d f1 e5 38 2b bb f3 39 54 7c a1 39
       0.0003880653 0.0001096454 0.00046488023 0.00030800945
000100 30 54 20 39 c0 2a a9 39 7f d6 17 b9 82 e5 cc b8
       0.00015290151 0.00032266043 -0.00014480388 -9.770227e-05
000110 85 76 05 3a 31 bb 95 b9 61 c3 07 3a 88 5f 01 ba
       0.0005091208 -0.00028558963 0.0005178955 -0.0004935195
000120 a6 ba 03 ba 71 82 f2 b9 5f 7b 2f 39 10 b4 b9 39
       -0.0005025066 -0.00046255023 0.0001673526 0.00035420107
000130 63 73 3e b9 ad 49 aa b9 c8 1a d6 39 ab 74 94 b8
       -0.00018162797 -0.0003247982 0.00040837214 -7.078921e-05
000140 02 88 07 b8 e2 e3 1a b9 35 40 79 b9 45 b3 f6 b8
       -3.2313175e-05 -0.00014771477 -0.0002377041 -0.00011763586
000150 cd 1c f5 39 21 93 8b 38 2b d6 e6 b9 d3 8c 85 b9
       0.000467515 6.6554414e-05 -0.00044028586 -0.0002547266
000160 d0 a0 de 39 04 29 cf 39 fd 20 03 39 35 8e 1c b9
       0.00042462954 0.00039512676 0.00012505423 -0.00014930296
000170 c2 e3 8e 37 2c dc 11 b9 a9 69 db 39 5e e3 9e b8
       1.7033777e-05 -0.00013910298 0.00041849658 -7.5763775e-05
000180 27 a8 e1 b8 23 61 f0 b9 6a c0 4d b9 de ae 23 b9
       -0.00010760157 -0.0004584874 -0.00019622003 -0.00015610034
000190 fe a8 80 b8 62 ce 5f b9 e0 f4 71 39 49 61 ba b9
       -6.134993e-05 -0.00021343821 0.00023074774 -0.00035549168
0001a0 42 bb ef b8 45 75 9b b8 7f 64 a1 b9 cc dc 7b 39
       -0.000114312876 -7.412819e-05 -0.00030783188 0.00024019479
0001b0 ec 26 2d b9 c0 fa 51 38 be 59 a0 39 8b 05 b5 39
       -0.00016513065 5.0063012e-05 0.0003058444 0.0003452714
0001c0 2b e8 86 38 f6 88 e1 39 65 e5 d0 b9 08 1d 61 39
       6.4328626e-05 0.00043017388 -0.00039843764 0.00021468487
0001d0 9b 9f 2b 39 a6 96 ab b9 a3 11 07 ba ef 65 e6 39
       0.00016367288 -0.00032727903 -0.00051524694 0.00043944965
0001e0 f9 ba 09 ba b7 f8 a8 b9 eb db aa b8 e1 25 9a 37
       -0.00052539964 -0.00032228764 -8.1471946e-05 1.837587e-05
0001f0 01 b5 c3 b9 e1 dc 07 ba 5b e4 92 b9 1e 50 6f b9
       -0.00037328157 -0.0005182755 -0.00028017428 -0.00022822662
000200 10 27 17 39 8a 6c 8c b9 e6 55 20 39 16 bc 83 39
       0.00014415034 -0.0002678375 0.00015290789 0.00025126402
000210 a5 de fb 38 fb a0 65 b9 6c d3 b0 b8 80 db a2 39
       0.000120100834 -0.00021899112 -8.4317144e-05 0.00031062588
000220 62 31 85 39 41 9c 8a b9 77 55 0e b9 04 aa d4 b7
       0.0002540453 -0.0002643783 -0.00013574013 -2.5351539e-05
000230 ef db 05 3a f7 27 19 38 2b 1f a0 b9 58 4f 44 36
       0.000510632 3.6515263e-05 -0.000305408 2.925246e-06
000240 66 f7 fa 38 00 d5 db 39 20 8c 94 39 0f d6 81 b9
       0.000119670105 0.00041929632 0.0002833316 -0.00024764283
000250 e3 1f 9a 39 54 40 7c 39 3f 26 e6 b9 7f da e4 39
       0.00029396926 0.00024056557 -0.00043897514 0.0004365034
000260 ad ac d4 b9 8d 81 9b b9 05 e5 02 3a ac 1f 73 b9
       -0.00040564444 -0.00029660427 0.0004993233 -0.00023186085
000270 ba 85 cb b7 7f 98 20 b8 12 f3 93 b9 23 86 86 39
       -2.4261757e-05 -3.8288996e-05 -0.00028219126 0.0002565841
000280 26 2d af b8 25 bb e8 37 eb 40 3b b9 17 51 5d b9
       -8.35306e-05 2.7743701e-05 -0.00017857894 -0.0002110641
000290 b4 00 f6 39 9d 60 da 39 d3 01 e0 39 d9 bf bc 38
       0.000469213 0.00041652183 0.00042725969 9.000273e-05
0002a0 0f d4 30 b7 f8 fa 64 b9 24 91 e3 b9 18 fc aa 39
       -1.0539791e-05 -0.00021837268 -0.00043404952 0.0003261275
0002b0 3a b8 57 b9 a5 6a 99 b9 96 2b 48 38 79 e4 72 39
       -0.00020572628 -0.0002926189 4.772431e-05 0.00023164031
0002c0 5c 39 b8 b9 ec 2d d5 38 b0 c1 33 b8 9f 87 ce 38
       -0.0003513795 0.00010165185 -4.285731e-05 9.848107e-05
0002d0 9b 3e 44 39 37 39 85 b7 8f 25 00 3a f2 ef a8 b9
       0.00018715339 -1.5881478e-05 0.0004888409 -0.0003222223
0002e0 22 35 08 ba f9 85 77 b8 86 2b f1 b9 ff 22 dd b9
       -0.00051959057 -5.901416e-05 -0.0004599953 -0.0004217848
0002f0 e4 75 a2 b9 83 92 b6 b9 ac da ef b9 87 d4 05 3a
       -0.00030986883 -0.00034822905 -0.00045748556 0.00051052164
000300 56 31 31 b9 1a a1 e9 39 4b 0f e3 b9 c9 ec d2 b9
       -0.00016898414 0.00044561253 -0.00043308208 -0.0004023074
000310 3f 70 b8 39 59 b6 af 39 b6 ad d0 39 40 57 b4 37
       0.00035178845 0.0003351446 0.00039802276 2.1498301e-05
000320 ba 12 34 b9 a0 a4 84 39 63 57 98 b9 f0 9f 8d b8
       -0.00017173114 0.00025299657 -0.00029056807 -6.7531946e-05
000330 62 6a 57 39 7a df ee 39 71 6f 9f 39 dd fc 06 39
       0.00020543628 0.000455614 0.00030409874 0.00012873435
000340 38 1d e7 39 e8 35 6b b9 f7 4f 81 39 93 09 02 b9
       0.00044081523 -0.00022431428 0.00024664376 -0.00012401333
000350 7c 73 ab 39 f1 4b 01 ba d5 42 fa 39 d2 79 cc 39
       0.00032701704 -0.00049322756 0.0004773351 0.00039000675
000360 f1 1b 0a 3a ec 6d e0 38 99 cd 03 ba b5 27 c9 b9
       0.0005268446 0.00010701627 -0.000502789 -0.00038367292
000370 b1 47 6f b9 c6 b7 3f b9 4d 29 ae b9 7e 19 e7 b8
       -0.00022819523 -0.0001828364 -0.00033218638 -0.00011019687
000380 25 2d 32 b9 9f 55 38 b9 87 58 65 b9 9d ed 30 b8
       -0.0001699222 -0.00017579504 -0.00021872121 -4.2182965e-05
000390 d0 5f 07 ba 76 40 78 39 df dd c5 b9 5c 1a 9c 39
       -0.00051641185 0.00023675137 -0.00037740075 0.00029774278
0003a0 0e ee bc b9 54 97 7b 38 59 7e 41 39 18 a7 92 39
       -0.0003603552 5.9984e-05 0.00018452982 0.00027971785
0003b0 4c 58 20 38 52 c7 3a 39 7e 41 4b 38 4f 79 f2 39
       3.8229206e-05 0.00017812595 4.8459966e-05 0.0004624822
0003c0 b6 38 cf b9 eb 87 a8 39 ed ff b8 b8 ee 0b c3 39
       -0.0003952437 0.00032144724 -8.8214736e-05 0.00037202187
0003d0 d2 f5 61 b9 61 31 85 38 85 39 a6 39 13 7f 5c 39
       -0.00021549247 6.351132e-05 0.00031704843 0.00021028174
0003e0 1e e7 3d 39 e7 bf 82 b9 a8 0b bf 38 74 37 5e 39
       0.00018110542 -0.0002493851 9.109761e-05 0.00021192228
0003f0 e3 16 1b 39 0c 10 01 3a 7e 4c 07 39 21 90 a1 39
       0.00014790478 0.00049233506 0.00012903099 0.00030815697

layers.2.bias f4 [128]
000000 68 60 91 35 59 64 fa b6 9b ab 83 37 a3 d8 07 36
       1.08314e-06 -7.4622626e-06 1.5696327e-05 2.0242667e-06
000010 b7 49 aa 36 9c b5 84 35 74 7a 85 35 8c 47 9b b5
       5.0749763e-06 9.887622e-07 9.944911e-07 -1.1569223e-06
000020 0d 96 21 b7 5f 31 5a b7 35 53 88 36 2d d2 1f 36
       -9.631284e-06 -1.3005308e-05 4.0628024e-06 2.3815185e-06
000030 bc 06 7f b5 5f c8 de b6 36 ea ee b6 3d da b5 35
       -9.50047e-07 -6.639442e-06 -7.1202185e-06 1.3549067e-06
000040 84 e4 01 36 58 0a 47 b5 f1 a6 b2 b6 65 78 ad 36
       1.9355512e-06 -7.414833e-07 -5.324248e-06 5.1698175e-06
000050 3f af c9 35 6f fa 17 33 71 9d a9 b4 39 28 3d b6
       1.502667e-06 3.5385195e-08 -3.1593257e-07 -2.8186607e-06
000060 be e0 57 34 72 0f 58 36 b9 74 16 34 da 18 f5 b5
       2.0105196e-07 3.2195499e-06 1.4012302e-07 -1.8261155e-06
000070 3c 6c 5f 35 03 30 9d b6 38 9c dd 35 62 b5 c0 36
       8.3231475e-07 -4.684554e-06 1.6511249e-06 5.7431616e-06
000080 e6 96 5b b5 a2 e6 48 b4 08 49 c0 36 78 0e 67 b6
       -8.1803444e-07 -1.8710355e-07 5.730548e-06 -3.4430104e-06
000090 8c be 67 35 e8 9e 7d 36 34 19 f3 b4 83 4d 85 36
       8.633149e-07 3.7792433e-06 -4.5280615e-07 3.9727324e-06
0000a0 52 31 96 b5 2f a9 a5 35 e4 30 28 36 e8 da 49 b6
       -1.1190225e-06 1.2342697e-06 2.506241e-06 -3.0078754e-06
0000b0 64 9c 62 b6 ce 2f 04 37 e7 f0 cb 36 7d e7 45 b6
       -3.3767656e-06 7.8789435e-06 6.077916e-06 -2.9490031e-06
0000c0 de 02 85 b5 58 57 cf b6 0a 1b 13 36 b6 4c 10 b4
       -9.910107e-07 -6.179249e-06 2.1920446e-06 -1.3438952e-07
0000d0 03 4a a9 b5 32 3d a8 b6 17 4f b8 36 e4 f1 94 36
       -1.2613021e-06 -5.0139142e-06 5.4928346e-06 4.4389035e-06
0000e0 b8 d7 cc 35 52 bd 75 36 12 bb 96 35 28 43 1f b6
       1.5261967e-06 3.6618044e-06 1.1230316e-06 -2.3731936e-06
0000f0 03 d9 72 b6 ad cd 73 b6 cb 89 d0 35 95 2b fb 36
       -3.6187128e-06 -3.632954e-06 1.5537311e-06 7.4854565e-06
000100 b8 d4 19 b6 02 3a 63 b6 44 7c 6c b2 07 28 7d b6
       -2.2922595e-06 -3.38594e-06 -1.3765263e-08 -3.7723237e-06
000110 60 f0 07 35 91 2f c5 b5 48 24 98 b4 6e 44 50 b6
       5.064121e-07 -1.4691487e-06 -2.8338604e-07 -3.1034247e-06
000120 24 c1 09 b4 f7 b6 6d b6 19 95 5e b5 13 ea b4 b6
       -1.2829383e-07 -3.5422252e-06 -8.291841e-07 -5.391668e-06
000130 96 f8 5a 35 68 e8 38 35 34 15 75 36 a6 da 88 b5
       8.157307e-07 6.8883537e-07 3.6520187e-06 -1.0196425e-06
000140 43 27 13 b6 b4 f1 4b b6 18 d3 cd b5 53 35 b9 36
       -2.192756e-06 -3.0390047e-06 -1.5335127e-06 5.5196374e-06
000150 70 46 98 b6 b6 b9 fb b4 a6 13 77 b6 e2 f3 44 35
       -4.538153e-06 -4.6887516e-07 -3.6817305e-06 7.3370586e-07
000160 62 6d 26 35 37 c8 46 b4 c1 30 86 b6 11 07 0b b7
       6.199899e-07 -1.8513025e-07 -3.999187e-06 -8.286691e-06
000170 69 57 f5 36 ef 3f b6 36 a0 9a fd b5 1f 77 d2 35
       7.311745e-06 5.4314655e-06 -1.8894971e-06 1.5680888e-06
000180 67 bb bf b5 7d b6 0e 36 f0 6d 95 36 ae 0d 34 b6
       -1.428515e-06 2.126587e-06 4.4533444e-06 -2.6830053e-06
000190 10 fe 47 b6 1f 45 26 36 8b 17 90 34 7f ec 08 37
       -2.9801195e-06 2.4776161e-06 2.683922e-07 8.161295e-06
0001a0 35 a7 c2 b5 81 8e 0e 35 9f 56 d7 b6 fe e8 67 b4
       -1.450279e-06 5.310649e-07 -6.4175833e-06 -2.1598314e-07
0001b0 2c 90 15 b6 c5 06 a4 b5 5e 68 40 37 41 40 af b5
       -2.228665e-06 -1.2220922e-06 1.1468392e-05 -1.3057216e-06
0001c0 78 22 dc b2 1c 2d b4 35 0b 75 53 36 d7 a0 57 34
       -2.5627045e-08 1.3424174e-06 3.1509578e-06 2.0081949e-07
0001d0 d3 6d 73 b4 4b 90 1f 36 cd 5f 27 36 c0 15 9b 35
       -2.2671092e-07 2.3776836e-06 2.4940703e-06 1.155473e-06
0001e0 5a a2 81 36 24 1f c9 b6 84 d9 46 37 3c 52 6f 36
       3.8634e-06 -5.993892e-06 1.1852364e-05 3.5661642e-06
0001f0 f3 e0 b1 36 ae 2a 2c b5 5c 83 3c b6 59 d0 fb 34
       5.3011986e-06 -6.41371e-07 -2.8090644e-06 4.6903986e-07

layers.4.weight f4 [2, 128]
000000 1e 1e b8 39 e4 8d d5 39 5c 0f b0 39 cc 3d ce 39
       0.00035117654 0.00040732243 0.0003358078 0.00039337424
000010 8e 7d f7 39 c5 f0 cd b9 16 8d fc 39 ab 8f 79 39
       0.00047205057 -0.00039280034 0.00048170303 0.00023800011
000020 0f 62 ea b9 96 1e ef 39 cf f9 c4 b8 e7 17 f6 b9
       -0.00044705017 0.0004560842 -9.392539e-05 -0.00046938585
000030 44 9c 72 b8 0e c0 dd b9 17 47 6c 39 7c aa c4 b9
       -5.784283e-05 -0.00042295497 0.00022533197 -0.00037511054
000040 f4 e5 d5 b7 47 10 e1 b6 94 a0 d7 b9 0b 18 a0 39
       -2.5498659e-05 -6.7074175e-06 -0.00041127636 0.00030535492
000050 d9 d2 be 39 26 b1 ce b9 5f ef fb b9 72 1c 4b b9
       0.00036396718 -0.00039423368 -0.00048052796 -0.00019370185
000060 4c 40 fa 39 be 13 29 b9 1e e2 b5 b9 99 33 b1 b9
       0.0004773162 -0.0001612445 -0.0003469148 -0.00033798514
000070 66 9d 87 b9 99 d0 02 b8 ff c3 8c 39 e8 fa ee 39
       -0.00025866478 -3.1188687e-05 0.0002684891 0.00045581837
000080 1e 96 b5 b9 9b c1 f6 39 d0 41 e3 39 a8 49 51 39
       -0.00034634856 0.00047065024 0.00043345848 0.00019959232
000090 05 67 3e 38 63 83 9d 38 dd d4 31 39 ed a5 68 b8
       4.5395474e-05 7.510816e-05 0.00016959333 -5.546764e-05
0000a0 4f d1 24 b9 bc 3e 9f b8 55 78 a2 39 ca a6 82 b8
       -0.00015718232 -7.593396e-05 0.00030988702 -6.22995e-05
0000b0 03 14 86 b9 ce 43 0c 39 72 5b 80 39 c9 d9 90 b9
       -0.00025573382 0.000133767 0.00024482195 -0.00027628083
0000c0 c2 83 03 39 dc d4 b6 38 45 5c 8c b9 69 61 9e 39
       0.00012542217 8.7180844e-05 -0.00026771627 0.00030208685
0000d0 73 ce 0a b9 68 12 bb 38 16 e9 00 ba 24 5a 43 39
       -0.00013237614 8.920283e-05 -0.0004917545 0.00018630229
0000e0 c8 a7 87 39 25 49 97 39 d8 42 0a 3a db 7d 70 b9
       0.00025874213 0.0002885546 0.0005274243 -0.00022935068
0000f0 42 88 ce b9 e0 b3 fa 38 b3 6c 90 39 a2 72 9a 39
       -0.00039392902 0.00011954433 0.00027546808 0.00029458577
000100 7d 8d 82 35 dd 62 9e b9 68 d6 eb b9 c0 07 82 b9
       9.726933e-07 -0.00030209767 -0.00044982438 -0.00024801306
000110 da 01 32 b9 8e 8e b8 b9 00 55 c1 b9 c7 cc 85 39
       -0.00016976093 -0.00035201426 -0.0003687516 0.00025520308
000120 54 34 02 37 8a c8 e4 39 91 9b 07 39 35 d6 95 b9
       7.760787e-06 0.00043636962 0.00012932556 -0.0002857909
000130 81 d5 94 b9 ac 53 de 38 7b 6b f4 38 e0 bb 4f b9
       -0.00028387833 0.0001060137 0.000116548465 -0.00019811047
000140 70 a7 e5 37 99 9f aa b9 43 bc 61 38 44 b8 fa b8
       2.7376896e-05 -0.00032543836 5.3819513e-05 -0.00011955251
000150 63 29 8f 38 50 59 4d 39 52 e7 1f 39 f4 d2 08 3a
       6.82648e-05 0.00019583595 0.00015249595 0.0005219423
000160 ce e9 9d b9 88 1b 38 b9 4f 39 f1 b9 24 88 80 b8
       -0.00030119572 -0.00017557864 -0.000460098 -6.128874e-05
000170 3b 67 5b 39 c4 de d7 39 50 ee d8 b7 b0 18 a8 b9
       0.00020923924 0.0004117397 -2.586018e-05 -0.0003206185
000180 7d bf bb b8 99 ab 9f 38 82 f3 99 b9 f0 d6 89 b9
       -8.952522e-05 7.6136734e-05 -0.00029363862 -0.00026290817
000190 f1 0a 0f ba c9 27 6c b9 42 79 e9 b8 d8 61 19 39
       -0.00054566475 -0.00022521535 -0.00011132892 0.00014627667
0001a0 04 35 55 b9 9a f9 a8 b9 8f cc 36 b9 af ac b8 39
       -0.00020333013 -0.00032229425 -0.00017433077 0.00035223874
0001b0 cd 5f 01 3a 5f 77 60 39 d8 b5 c1 39 99 95 72 36
       0.0004935235 0.00021406774 0.00036947313 3.6147887e-06
0001c0 8d 64 1c b9 d4 e6 c6 b9 ed b4 84 b9 8d d5 ba b9
       -0.00014914777 -0.00037937483 -0.00025311802 -0.00035635792
0001d0 d5 cf 8b 39 6b 56 f5 38 9b 8d ef 37 75 06 9e b9
       0.00026666993 0.00011698607 2.855696e-05 -0.0003014092
0001e0 43 c3 34 b8 9f f4 47 39 1f b7 4f 38 90 d6 b6 b9
       -4.3097196e-05 0.00019069247 4.952319e-05 -0.00034873607
0001f0 f2 cd b3 39 ef 13 4b b9 ea 3e f8 39 af 46 ca b9
       0.00034294982 -0.00019367014 0.0004734912 -0.00038581106
000200 25 b2 2a b9 7e f9 ab 39 16 b1 f5 b9 d1 0f 3a 38
       -0.00016278827 0.00032801548 -0.0004686198 4.4360586e-05
000210 38 e4 d1 b9 97 8c 79 b8 24 c5 32 b9 68 39 1c 39
       -0.00040033623 -5.949716e-05 -0.00017048843 0.00014898705
000220 a9 07 04 3a 3f f7 ff 39 11 bc 49 b9 e8 66 06 b9
       0.0005036542 0.00048821603 -0.00019238914 -0.00012817571
000230 d9 44 40 38 39 3c b0 39 3e 0a e3 39 c6 ce 60 b9
       4.5840487e-05 0.00033614205 0.00043304445 -0.00021439334
000240 fd d3 17 b9 ec 8e a7 38 1d 0f ed b5 77 25 a1 b9
       -0.00014479454 7.989802e-05 -1.7662275e-06 -0.00030736226
000250 5c c2 4f 38 67 3e a8 38 cf 31 81 b7 df e1 15 39
       4.9533657e-05 8.0224876e-05 -1.5401192e-05 0.00014293891
000260 ba 80 91 b9 8f bd 41 b9 45 32 ec b8 5f 53 4c 39
       -0.00027752464 -0.0001847653 -0.0001126272 0.00019486014
000270 b3 94 8d b9 1d c1 06 39 4f fc 07 b9 1e f0 6c b8
       -0.00027004405 0.00012851176 -0.00012968596 -5.649041e-05
000280 95 33 05 b9 c3 4a dd 38 be 96 2d b9 dc a6 c9 39
       -0.00012703084 0.00010552027 -0.00016554722 0.00038462027
000290 b3 dd c6 b7 92 61 ce b9 4a b2 32 39 c4 e6 cc b9
       -2.3706676e-05 -0.00039364077 0.0001704182 -0.00039081846
0002a0 e4 9a 32 39 28 cc 1e b8 cc 2b 82 b9 6f f4 0f 39
       0.00017033104 -3.786027e-05 -0.00024828163 0.00013728601
0002b0 ae d5 25 39 42 11 97 b9 3b 80 de b9 2c 12 16 39
       0.00015815228 -0.00028813822 -0.0004243868 0.00014311884
0002c0 e8 82 cb 39 84 a5 f3 39 0c 24 ec b9 0b 18 98 37
       0.0003881671 0.0004647189 -0.00045040285 1.8131008e-05
0002d0 20 1d bc 38 d3 d4 b6 39 47 4a 8c b9 e3 15 65 b9
       8.9699635e-05 0.00034872312 -0.00026758222 -0.00021847295
0002e0 b9 60 0a 39 f3 92 e6 b7 4f b0 bb 39 be d8 02 39
       0.00013196738 -2.7486565e-05 0.0003579878 0.00012478509
0002f0 7e 83 14 b9 80 15 cd 39 f1 44 f2 39 fc a9 ba b9
       -0.00014163365 0.00039116666 0.00046209202 -0.00035603333
000300 1e 13 39 39 ad 91 bd 39 7c 2f 5b b9 2a 84 df 37
       0.00017650097 0.00036157426 -0.00020903157 2.6645215e-05
000310 07 71 f9 b9 09 4a 91 b9 f3 0d 09 39 9e 97 79 39
       -0.00047577193 -0.00027711716 0.00013070535 0.00023802972
000320 8f fa 29 b8 b8 aa e6 39 b5 73 ec 39 02 f9 1a 39
       -4.052609e-05 0.00043996214 0.00045099636 0.00014779347
000330 8c a6 1c b6 ee a1 e7 b8 65 89 77 b9 bf 12 49 b9
       -2.3342755e-06 -0.000110451 -0.00023606939 -0.00019175837
000340 03 15 51 39 25 43 de 39 e5 45 ee 38 d6 36 02 ba
       0.0001993962 0.00042393166 0.00011361743 -0.00049672776
000350 e0 63 ce 39 f7 e9 3c 38 7f e1 70 39 ed 87 a8 39
       0.00039365795 4.504059e-05 0.00022972187 0.0003214473
000360 95 32 82 b9 58 a8 89 35 8a 4c cd b9 d6 f0 86 39
       -0.0002483322 1.025629e-06 -0.00039157673 0.00025737908
000370 74 8d e3 b9 24 d1 55 b9 23 00 ec 38 0c 2d d2 b9
       -0.00043402205 -0.00020391174 0.000112533824 -0.00040087884
000380 66 a6 f8 38 17 0b 04 ba a9 a4 c9 b9 45 f4 7f 38
       0.00011856556 -0.0005037053 -0.0003846039 6.102423e-05
000390 b3 cb 93 b9 a1 51 0b b9 2b 93 a1 b9 5a c1 02 ba
       -0.00028189793 -0.00013286482 -0.00030817962 -0.0004987918
0003a0 6e dd dd b9 bf 43 33 b9 0d a5 09 39 f2 c5 cc 39
       -0.00042317383 -0.00017096008 0.00013126824 0.00039057393
0003b0 43 1c 8f 39 97 11 a4 39 cb 0d d5 b9 be ea f6 38
       0.00027296142 0.00031293623 -0.00040636802 0.00011773918
0003c0 86 5a 46 b9 c6 25 4f 37 de 9d d0 b9 77 f7 cb 38
       -0.00018916474 1.2346956e-05 -0.00039790472 9.725888e-05
0003d0 96 3a 8d 39 26 fe 74 b9 0b c4 01 b9 b4 5c 46 b9
       0.00026937266 -0.00023364331 -0.0001237543 -0.00018917286
0003e0 2b c8 7c b9 25 f3 ab 39 52 d6 d3 b9 d6 e8 bd b9
       -0.00024107161 0.00032796818 -0.00040404737 -0.00036222365
0003f0 03 a4 0d b9 e9 89 78 b9 ad 02 c7 38 d2 64 60 b9
       -0.00013507907 -0.00023702499 9.489558e-05 -0.00021399863

layers.4.bias f4 [2]
000000 7e ca 86 36 19 6c 78 b9
       4.0170844e-06 -0.00023691393

momentum_buffer f4 [128, 4]
000000 fb 45 ba bb 88 f0 9d bb c4 4e bf bc 76 a4 8b 3c
       -0.005684612 -0.0048199333 -0.023352988 0.017046195
000010 92 a8 a8 bb 18 dd 5a 3c 93 7c b8 3c ff c8 81 bb
       -0.0051470483 0.013358377 0.02252034 -0.003960728
000020 0e ae 8a 3c 15 b6 0c bc 0b c6 d8 3c 3a 70 e4 3b
       0.016928699 -0.008588334 0.026461622 0.0069713863
000030 85 da ce bc 86 72 65 3c 07 7b 22 3c 94 10 be ba
       -0.025250683 0.014004355 0.009917027 -0.001450079
000040 02 3c af bc 30 2f 6c bc 1e 80 a2 bc af 41 4e 3b
       -0.021390919 -0.014415547 -0.019836482 0.0031472256
000050 96 4f cd 3b 63 9b d6 3c 83 d9 5f 3c fe 80 2b bc
       0.006265591 0.026197141 0.013662699 -0.010467766
000060 c7 6f 34 3b d2 4d 1c bc b9 42 60 3c 8e 09 48 3c
       0.0027532445 -0.009540038 0.013687783 0.012209309
000070 8a 08 50 bb 70 54 ac 3c d6 40 85 bc bf ce 43 bb
       -0.003174337 0.021036357 -0.016266268 -0.002987787
000080 07 81 ae 3b 45 6b a4 bc 99 90 7e bb d7 df 76 3c
       0.00532544 -0.020070681 -0.003884351 0.015068016
000090 82 57 0c bc 95 4a 87 bc c5 35 17 bc 5a f3 e1 bc
       -0.008565785 -0.016515056 -0.009229128 -0.02758186
0000a0 8e 55 92 3c f9 5e 1f 3c 26 79 ed bb 5f a9 67 bb
       0.017863061 0.009727233 -0.007247108 -0.0035348756
0000b0 1c 41 45 3c 56 7d fb 3b c0 86 78 3c c7 f1 d6 bc
       0.012039449 0.0076748533 0.015168846 -0.026238335
0000c0 40 7d 9a 3c 92 19 c5 3c 93 86 cb bc 2e ba 9a 3c
       0.018858552 0.024060044 -0.024844443 0.018887606
0000d0 58 3e 86 bc 2a d7 95 bc 2a fd 5c 3c 12 57 8d bc
       -0.01638715 -0.018291075 0.013488093 -0.017253432
0000e0 e4 68 71 3a 42 cc 84 3c 0c f2 e5 bc cb 46 28 3c
       0.00092090503 0.016210679 -0.028069519 0.010270785
0000f0 3c 46 99 3c 3a 9f 10 bc ba 41 8d bc 4a 58 b6 bb
       0.018710248 -0.008827025 -0.017243255 -0.005564724
000100 f1 1b cb 3c dc 7a 71 3c ac 55 ac bc 2d 94 5a bb
       0.024793597 0.014738765 -0.021036945 -0.003335248
000110 4e 49 60 bb 90 02 76 bc f8 65 4e 3c 16 d1 7f 3c
       -0.003422338 -0.015015259 0.012597553 0.015613815
000120 b0 63 3c bc ec 50 cd bc d4 a6 c4 bc b6 0f 06 3c
       -0.011498377 -0.025063 -0.024005331 0.008182457
000130 1b b2 1e 3b be 46 97 3a 7f e6 8b 3b 5a 82 88 bc
       0.0024215046 0.0011541469 0.0042694206 -0.016663719
000140 9c 3c 47 bc 66 a4 43 bc be 9c 91 3c 7b 65 22 bc
       -0.0121604465 -0.011941051 0.017774936 -0.00991189
000150 f5 b5 49 bc 01 e4 93 3c bc 46 d2 3c ae e7 87 bc
       -0.012311448 0.018053057 0.025668494 -0.016589966
000160 8e 62 9f 3c 96 8e 2e 3c bb c8 89 3c d5 37 89 bc
       0.019456174 0.010654112 0.016819349 -0.016750256
000170 43 38 bc bb 8c b7 d3 bc a8 33 df bc 2e da 00 bc
       -0.0057440116 -0.025844358 -0.027246311 -0.007864518
000180 3e cf a6 bc 5b 19 cc bc 04 c9 f5 bb 70 b4 21 bc
       -0.020362493 -0.024914434 -0.0075007696 -0.00986968
000190 df 26 e4 3b 9f 3b 28 3c 58 21 e0 bb 99 2a c5 3c
       0.0069626416 0.010268121 -0.0068399124 0.024068164
0001a0 42 3a 32 bc 72 db 7a 3b cf 33 df 3c 82 80 c2 3c
       -0.010878148 0.0038277772 0.027246384 0.023742918
0001b0 4f 2c c5 3c 96 36 55 3b cd 60 2b bc ef 44 ac 3c
       0.02406898 0.0032533756 -0.010460091 0.021028964
0001c0 82 4b 34 bc b8 38 2c 3c 7d 40 b0 ba c7 8d 98 bb
       -0.011004331 0.01051157 -0.0013446953 -0.004655573
0001d0 18 70 54 bc cd 53 d8 bb ac 85 91 bc df 6f 7c 3c
       -0.012966178 -0.0066017867 -0.017763935 0.0154075315
0001e0 66 16 30 bc 52 d6 91 3c 92 7b d3 bc e5 de 17 3b
       -0.010747528 0.017802391 -0.025815759 0.0023173627
0001f0 31 08 31 bc dc a7 a7 bc 46 13 bb bc 2b 38 51 3c
       -0.010805176 -0.020465784 -0.022836339 0.012769739
000200 a8 fd 7d 3b 36 39 93 bc ba ad 10 bc 1b b1 db bb
       0.0038755927 -0.017971616 -0.008830482 -0.006704462
000210 63 1e 1e bb 69 43 37 3c bb 80 9e bc d9 d4 c4 bc
       -0.0024126999 0.011185505 -0.019348493 -0.024027275
000220 30 4b d5 ba 80 3b 79 3a e3 0d a2 3a 5d f2 2d 3a
       -0.0016273018 0.00095074624 0.0012363758 0.0006635541
000230 2a 1f 52 bb c7 b8 1f bc 55 77 94 ba ef 42 b7 bc
       -0.0032062032 -0.009748644 -0.0011327068 -0.022370784
000240 f7 20 87 bc e0 f1 e1 3c 2f 9a c9 bb f6 ee a3 bc
       -0.016495211 0.027581155 -0.0061524133 -0.020011406
000250 01 d1 bb 3c 75 9f 42 bc 0c bd 04 3c d9 b4 e5 3c
       0.02292681 -0.011878838 0.008101713 0.028040336
000260 00 da 8e 3c 5d a7 c3 3b 79 1d c0 bc f0 9d 9e 3c
       0.017437935 0.005970879 -0.023451554 0.01936242
000270 28 8a a5 bc 87 68 f5 bb b1 50 d3 3b 50 08 d9 ba
       -0.02020748 -0.0074892673 0.006448828 -0.0016558263
000280 65 1c 06 bc c3 2a a8 3c 9b d4 e0 3c f1 43 53 3c
       -0.008185481 0.020528203 0.027445128 0.012894616
000290 13 b4 b3 bc ae e9 3f bc 34 0e 9c 3b 10 e3 83 3c
       -0.021936452 -0.011713428 0.0047624353 0.016099483
0002a0 3e 78 fd 3b 4a 79 c6 bb ac 09 d8 bc 37 55 8d 3b
       0.0077352813 -0.0060569393 -0.0263718 0.004313137
0002b0 a2 d1 89 bc 00 c2 be bc e3 27 a4 bb 8e f9 49 3c
       -0.016823594 -0.023285866 -0.0050096377 0.012327565
0002c0 a2 b0 cf bc 84 0a 93 bc 41 84 24 3c 22 07 93 bc
       -0.02535278 -0.01794935 0.010041297 -0.017947737
0002d0 81 2a 26 3a cc 44 07 3c 23 1d cf bc 17 0b 14 3c
       0.0006338731 0.008256149 -0.025282448 0.009035847
0002e0 70 11 80 3b c8 7c 11 bc d6 84 40 3c c2 65 4e bb
       0.0039083287 -0.008879848 0.011750421 -0.0031493758
0002f0 14 97 92 bb a6 53 aa bc c7 1f e3 bc f2 b4 e3 3c
       -0.0044735763 -0.02079184 -0.027725114 0.027796242
000300 5a 35 a6 bc 72 e7 c5 bc a8 9f ab bc 1d 3d ca 3c
       -0.020289112 -0.024158213 -0.020950153 0.024687344
000310 31 26 93 bc a4 e0 30 3c 66 c2 91 3c c4 f4 92 bb
       -0.017962547 0.010795746 0.017792892 -0.0044847447
000320 98 f2 a1 3c 27 e6 98 3c a9 86 74 3a 2b d2 b1 bb
       0.019768998 0.018664433 0.0009327927 -0.0054266653
000330 0c a9 8b 3c 95 96 68 bb 23 16 e2 3c 91 ae d9 bc
       0.017048381 -0.0035490145 0.027598446 -0.026572498
000340 84 e9 42 3c e7 83 5d 3c 3a 08 ae bc 3e e5 72 ba
       0.011896495 0.0135202175 -0.021244157 -0.0009265727
000350 11 60 e7 3a 04 fa 11 3c d2 61 c8 bb 08 a6 c7 3c
       0.0017652531 0.008909706 -0.0061151767 0.024371162
000360 9a fc 9b 3c 78 8e d1 3c 47 5b d2 3c 01 bc da bc
       0.019041348 0.02558063 0.02567829 -0.026700975
000370 d8 04 61 bc 4f d4 a8 bc 0d 3a e5 bc ee 6f 8b bc
       -0.013734065 -0.02060905 -0.027981782 -0.017021146
000380 a1 b0 de 3c 3b 62 cd 3c f8 0c e3 3c 85 30 de bc
       0.027183833 0.025071254 0.027716145 -0.027122745
000390 72 58 b2 3c f2 e9 79 bc 1d 18 65 39 08 07 df 3c
       0.02177069 -0.015253531 0.00021848125 0.027225032
0003a0 49 0e cd bc 86 a5 3f ba ca 89 48 bc a5 e5 98 b9
       -0.025031226 -0.00073107367 -0.012239883 -0.00029162798
0003b0 61 9c 97 3c f6 e3 a5 bc e1 6e 17 bc da a8 bd 3a
       0.018507184 -0.020250302 -0.009242744 0.0014469877
0003c0 72 2e 87 3c 9a 47 67 bb 1a 3f a2 3c 56 0c a9 3b
       0.016501639 -0.003529048 0.01980548 0.0051589413
0003d0 5d f2 95 3a ef 69 ac bc 4f 25 bf 3c 85 bf f6 3b
       0.0011440028 -0.021046607 0.02333322 0.007530155
0003e0 59 2d 1f 3b 45 d7 2c bc 59 26 9f bc 76 4b dd bc
       0.0024288504 -0.010549371 -0.019427465 -0.027013522
0003f0 6c 53 c1 3a 84 9b e1 3c ec 1a 89 ba 5a 5e 7d 3c
       0.0014749593 0.027539976 -0.0010460294 0.01546439

momentum_buffer f4 [128]
000000 2b 40 81 b7 c6 4a 86 36 3e 57 4d 35 b9 be 08 35
       -1.5407879e-05 4.002216e-06 7.6495405e-07 5.0941486e-07
000010 6c c3 9c 35 30 8c 10 b7 ec 57 f9 b5 d3 86 6b 35
       1.1679781e-06 -8.615709e-06 -1.8577534e-06 8.7740517e-07
000020 7c 50 7f b3 fe f5 dd b6 39 48 44 36 0c f8 32 36
       -5.9445014e-08 -6.6149505e-06 2.9248315e-06 2.666845e-06
000030 64 17 38 b5 5a 86 2f 35 ee ac 8b b6 9c e4 df 35
       -6.857938e-07 6.538809e-07 -4.1626545e-06 1.6681329e-06
000040 b0 4f 61 b5 33 c0 96 b5 d6 2a 18 b5 c7 18 d9 37
       -8.393499e-07 -1.1231808e-06 -5.6686747e-07 2.5879954e-05
000050 d9 16 f3 b5 0e 37 b9 b6 3b 53 75 35 a5 5f c0 36
       -1.811156e-06 -5.519839e-06 9.139073e-07 5.7331804e-06
000060 24 35 ef 35 dc c5 7e 37 0c 31 9b 36 d4 bb f1 b4
       1.7822354e-06 1.51856475e-05 4.62507e-06 -4.502641e-07
000070 74 d4 d4 b6 6c 55 92 32 0f c0 41 36 0c df a4 36
       -6.342825e-06 1.7035482e-08 2.8871034e-06 4.913547e-06
000080 e9 1c fd b5 38 3f c3 b5 15 70 3b b7 4a 05 df b6
       -1.8858383e-06 -1.4547031e-06 -1.1172165e-05 -6.6465336e-06
000090 38 53 0a b6 dd 05 10 34 5f 37 6e 35 39 fe 75 b6
       -2.0612042e-06 1.3413178e-07 8.8742485e-07 -3.6655822e-06
0000a0 7a c0 25 36 44 ee e3 b5 a7 e6 d7 37 9e fe c4 36
       2.4698952e-06 -1.6982162e-06 2.5737403e-05 5.8708965e-06
0000b0 6f 04 82 34 e2 cf 13 37 f6 fe eb 35 31 8c 97 b5
       2.4217613e-07 8.810284e-06 1.7583068e-06 -1.1291178e-06
0000c0 9a 53 f1 b5 57 36 8b 33 9b a6 68 b6 d0 cd 45 36
       -1.798023e-06 6.482576e-08 -3.466767e-06 2.9475086e-06
0000d0 63 88 67 b6 64 66 77 36 2c 07 08 b6 a7 85 e9 35
       -3.450107e-06 3.6865467e-06 -2.0269754e-06 1.7398751e-06
0000e0 af b3 12 b5 c6 f8 01 34 bf e1 11 35 ad be 13 b6
       -5.465071e-07 1.2104564e-07 5.4345213e-07 -2.2015695e-06
0000f0 c4 54 e4 b4 8b 3d 87 b5 96 f8 37 37 c9 c5 8e b5
       -4.2529985e-07 -1.0076195e-06 1.0965528e-05 -1.0637388e-06
000100 68 a7 ed b3 30 4d ba 36 d3 c4 1d 35 f0 2a 5e 35
       -1.10666235e-07 5.5522178e-06 5.8773475e-07 8.2763927e-07
000110 98 b6 21 36 28 9e 0e b4 73 a4 e1 35 ee 48 67 b5
       2.4097153e-06 -1.3282317e-07 1.6811667e-06 -8.616033e-07
000120 b4 62 86 32 84 3f e9 b5 4a 06 14 b7 38 00 7a 37
       1.5644538e-08 -1.7378338e-06 -8.822952e-06 1.4901212e-05
000130 2e 4a 11 b6 91 43 01 b6 8b e7 12 b6 b0 bb 40 36
       -2.1649862e-06 -1.9261827e-06 -2.189047e-06 2.8719478e-06
000140 18 0a 9a 36 f7 ab 93 b6 1b e4 27 b4 92 a1 2a 37
       4.5907327e-06 -4.4009607e-06 -1.5636071e-07 1.0170408e-05
000150 c3 ce b7 b5 bc b0 53 b6 59 21 95 37 1b e6 9b b3
       -1.3694738e-06 -3.1544323e-06 1.7777713e-05 -7.259606e-08
000160 87 fd a3 b5 17 7c 00 b5 b0 ac a8 35 f4 08 f3 b4
       -1.2218233e-06 -4.786429e-07 1.2567234e-06 -4.526879e-07
000170 a6 4a 5f 36 64 3f 95 36 7c 71 46 36 cb aa 81 33
       3.327304e-06 4.4479257e-06 2.9570356e-06 6.038098e-08
000180 3e 45 a3 b4 42 ec 9b b6 8a 91 a4 b5 42 70 ab b6
       -3.0411496e-07 -4.646864e-06 -1.226131e-06 -5.1092657e-06
000190 27 08 56 36 f6 36 44 35 0d 6b d0 b5 98 1b 11 b6
       3.189323e-06 7.309567e-07 -1.5528364e-06 -2.1622745e-06
0001a0 77 52 fb 34 7a 77 5b b6 6e f7 28 34 6e 25 81 b6
       4.6812394e-07 -3.2703088e-06 1.5736234e-07 -3.848857e-06
0001b0 bf 32 3c 36 45 9b 8d 34 c2 4c 10 b7 a4 d9 ec b6
       2.8043721e-06 2.637627e-07 -8.60094e-06 -7.058685e-06
0001c0 7c 0b 89 36 69 0a 18 b6 fe 12 a4 b6 c6 d1 8e b6
       4.084255e-06 -2.2655825e-06 -4.889792e-06 -4.2563506e-06
0001d0 cf f3 a2 36 5e 24 be b6 9d 95 00 37 1e 73 88 b5
       4.8563593e-06 -5.666675e-06 7.664229e-06 -1.0166293e-06
0001e0 65 ee fd b4 88 d9 89 b5 79 af e8 b6 ac 58 93 34
       -4.7298377e-07 -1.0270605e-06 -6.9345665e-06 2.74454e-07
0001f0 65 07 43 b7 e6 d1 10 b4 9a 49 fb b6 c1 9a 40 b5
       -1.1624627e-05 -1.3487406e-07 -7.4889513e-06 -7.175077e-07

momentum_buffer f4 [128, 128]
000000 40 3e bc ba cb 6b 86 bb 95 ce 00 3b fc 1a 74 3b
       -0.0014361814 -0.0041022054 0.0019654382 0.003724753
000010 41 09 98 3b 10 5d a2 bb 14 32 26 38 e8 ff a2 bb
       0.004639775 -0.0049549416 3.9624123e-05 -0.004974354
000020 26 3c 95 bb e3 fa 4d bb 81 c0 6e 3b 01 7a 86 b9
       -0.0045542894 -0.0031430058 0.003643066 -0.00025649372
000030 d7 02 8b 3b 45 fa 23 bb 9d f7 aa ba 63 01 84 bb
       0.004242282 -0.0025020998 -0.0013043765 -0.0040284856
000040 e0 2d 6a bb ca 3e 1b 3b 9a 9c 50 39 e2 23 2d bb
       -0.003573291 0.0023688548 0.00019894764 -0.0026419093
000050 34 5a 63 3b c8 88 44 3b 84 36 44 3b f0 61 90 3b
       0.0034691216 0.0029988755 0.002993972 0.0044062063
000060 53 6a 2c bb 46 49 30 ba d2 99 95 39 b9 a1 2e 3b
       -0.0026308491 -0.0006724786 0.000285341 0.0026646687
000070 f7 82 31 bb aa 92 d3 39 ca 70 97 3b a8 dd 5b 3b
       -0.0027086118 0.0004035433 0.0046216 0.0033548865
000080 59 d9 68 3b f6 46 93 bb ec 79 74 3a 83 9a 9b 3b
       0.003552994 -0.004494543 0.0009326029 0.004748644
000090 cb 22 c4 ba cf 83 5a bb 73 78 81 bb 4c a5 87 3b
       -0.0014963982 -0.0033342724 -0.0039511262 0.004139578
0000a0 d0 db 92 bb e8 62 7c bb 6a 25 8a 3b bd 60 c4 b9
       -0.00448177 -0.00385111 0.004215886 -0.0003745611
0000b0 c4 47 66 bb 84 da 95 bb 57 53 a2 bb a6 08 ab ba
       -0.003513799 -0.0045731682 -0.0049537825 -0.0013048842
0000c0 d1 1d a0 bb 1a a1 46 ba 35 bf 5d bb f6 27 20 3b
       -0.004886367 -0.00075771066 -0.0033835892 0.002443788
0000d0 d9 eb be b9 f0 ea a9 3a 74 a6 31 3b 0e 59 78 3b
       -0.00036415344 0.0012963694 0.002710727 0.0037894878
0000e0 e0 f8 92 3a 1b 94 db b8 f9 15 97 3b 03 a8 28 bb
       0.0011213087 -0.000104703206 0.0046107736 -0.0025734908
0000f0 cf 52 6f 3b 36 22 87 3a 7f 4e 8f 3b 93 f9 3d 3b
       0.0036517864 0.0010309878 0.004373371 0.002898787
000100 ef 5f bc 3a 8e ed 46 3b 8f b7 b2 ba c2 9d 70 ba
       0.0014371852 0.0030353996 -0.0013635027 -0.0009178781
000110 44 f4 9c 3b 76 34 30 bb ea af 9f 3b 64 1e 98 bb
       0.004789861 -0.0026886738 0.0048732655 -0.0046422947
000120 40 f6 9a bb bb a4 8e bb 01 54 ce 3a 45 67 5a 3b
       -0.0047290623 -0.0043531335 0.0015741588 0.0033325714
000130 18 e8 df ba ff 3d 48 bb e3 d0 7b 3b 02 26 2e ba
       -0.0017082719 -0.003055453 0.0038424067 -0.0006643237
000140 0d d6 9f b9 a9 0b b6 ba 7f 6e 12 bb b7 03 91 ba
       -0.00030486324 -0.0013888973 -0.0022343693 -0.0011063729
000150 8e 2d 90 3b f0 58 24 3a b0 bc 87 bb b6 04 1d bb
       0.004399962 0.0006269356 -0.0041423663 -0.0023959107
000160 83 e5 82 3b c9 88 73 3b 33 5f 9a 3a d2 30 b8 ba
       0.003994645 0.0037160388 0.0011777639 -0.0014052636
000170 16 65 27 39 3a bf ab ba 92 f9 80 3b ff 5f 3a ba
       0.00015964019 -0.0013103255 0.003936001 -0.00071096414
000180 f1 c8 84 ba e8 55 8d bb 3e 1e f2 ba df 9d c0 ba
       -0.0010130686 -0.0043132193 -0.0018472148 -0.0014695487
000190 19 56 17 ba 61 a7 03 bb cb 58 0e 3b 80 4c 5b bb
       -0.00057730224 -0.002008878 0.0021720405 -0.0033462346
0001a0 f9 e2 8c ba 01 8d 36 ba 9a da 3d bb 5e 0c 14 3b
       -0.0010748795 -0.000696376 -0.0028969408 0.002259038
0001b0 7f c3 cb ba 73 5f f7 39 a1 84 3c 3b e3 d3 54 3b
       -0.0015545933 0.00047182626 0.0028765576 0.0032474927
0001c0 07 92 1e 3a f2 98 84 3b ae b0 75 bb 9d 68 04 3b
       0.00060489814 0.004046553 -0.0037489343 0.0020203956
0001d0 1e c5 c9 3a 39 b4 49 bb ae d5 9e bb 9d 81 87 3b
       0.0015393829 -0.0030777587 -0.00484725 0.004135324
0001e0 ac f8 a1 bb aa bc 46 bb 5d ed 48 ba c0 54 34 39
       -0.004942974 -0.0030324855 -0.00076647644 0.0001719771
0001f0 95 2b 66 bb 7a cf 9f bb 48 d7 2c bb 8a 94 0c bb
       -0.0035121192 -0.004877028 -0.0026373435 -0.002145084
000200 03 cb b1 3a f6 1a 25 bb 88 5b bc 3a 53 10 1b 3b
       0.001356453 -0.0025193072 0.001437054 0.0023660853
000210 bc 4d 94 3a 1b 09 07 bb d4 10 50 ba 32 8e 3f 3b
       0.001131467 -0.0020604793 -0.0007937078 0.0029229042
000220 7c 96 1c 3b 89 f4 22 bb fa 8d a7 ba e9 c5 7a b9
       0.0023893407 -0.0024864993 -0.0012783401 -0.00023915585
000230 ca 5f 9d 3b aa c8 b4 39 48 4e 3c bb 58 48 da 37
       0.0048026787 0.00034481782 -0.0028733183 2.6021313e-05
000240 40 57 93 3a 20 43 81 3b 6f bc 2e 3b ee b0 18 bb
       0.0011241212 0.0039447695 0.0026662608 -0.0023298818
000250 6b 50 35 3b 13 69 14 3b 4d 5f 87 bb 2e 94 86 3b
       0.002766634 0.0022645637 -0.004131234 0.00410702
000260 1c 03 7a bb 40 ec 36 bb 8c f4 99 3b f2 17 0f bb
       -0.0038148826 -0.0027911812 0.0046983417 -0.002183434
000270 6e 46 6e b9 cb 6c bc b9 70 ec 2d bb 83 3d 1e 3b
       -0.00022723686 -0.0003593921 -0.0026538633 0.002414555
000280 56 1d 4e ba f8 22 89 39 4f 32 dc ba 5d 1c 02 bb
       -0.0007862648 0.0002615673 -0.0016799661 -0.0019853332
000290 fb b5 90 3b c4 55 80 3b 6a ab 83 3b cb 5f 5e 3a
       0.004416225 0.003916474 0.004018237 0.0008482902
0002a0 61 82 ce b8 01 8c 06 bb 72 d5 85 bb a5 25 49 3b
       -9.8471304e-05 -0.0020530226 -0.0040842826 0.0030692604
0002b0 68 6e fd ba 48 6c 34 bb 3b 35 eb 39 7b d1 0e 3b
       -0.0019335272 -0.002753036 0.00044862353 0.002179234
0002c0 fe 92 58 bb 79 1c 7b 3a d5 18 d4 b9 3d 94 72 3a
       -0.0033046599 0.0009579133 -0.00040454292 0.00092536566
0002d0 13 af e6 3a aa fa 1c b9 23 ab 96 3b f5 99 46 bb
       0.0017599784 -0.00014970699 0.004598038 -0.0030304168
0002e0 bb 3c a0 bb 3f 1c 12 ba ba be 8d bb e9 15 82 bb
       -0.004890052 -0.0005573667 -0.004325715 -0.003969897
0002f0 2c 26 3f bb b5 bb 56 bb 52 09 8d bb d0 62 9d 3b
       -0.002916704 -0.003276569 -0.0043040896 0.004803039
000300 e1 37 d0 ba 76 67 89 3b 47 82 85 bb d4 2e 78 bb
       -0.0015885794 0.0041932417 -0.004074368 -0.0037869709
000310 95 de 58 3b 8b c9 4e 3b a2 6a 75 3b 00 56 52 39
       0.0033091654 0.0031553234 0.0037447591 0.00020059198
000320 4c 75 d3 ba b1 15 1c 3b 12 29 33 bb 17 9c 26 ba
       -0.001613298 0.002381664 -0.0027337712 -0.00063556567
000330 4b 58 fd 3a 71 6f 8c 3b 75 5d 3b 3b 85 8a 9e 3a
       0.0019328682 0.004285746 0.002858964 0.0012095725
000340 ac e9 87 3b a5 5b 0a bb be f2 17 3b 9c fd 98 ba
       0.004147729 -0.0021111753 0.0023185457 -0.0011672261
000350 75 92 49 3b ef 11 98 bb 4d 31 93 3b 2a 58 70 3b
       0.0030757461 -0.0046408097 0.004491961 0.0036673644
000360 ae 71 a2 3b 9d 27 84 3a 98 12 9b bb 77 89 6c bb
       0.0049573993 0.0010082606 -0.004732441 -0.0036092678
000370 ce 9a 0c bb d0 54 e1 ba 60 cc 4c bb 35 20 88 ba
       -0.0021454575 -0.0017191414 -0.0031249747 -0.0010385575
000380 92 53 d1 ba e1 ce d8 ba 46 b6 06 bb 65 fc cf b9
       -0.001597034 -0.0016541147 -0.002055542 -0.00039670165
000390 c4 3b 9f bb 17 14 12 3b 25 c0 68 bb 02 ab 37 3b
       -0.0048594195 0.0022289807 -0.0035514918 0.0028025513
0003a0 0e 37 5e bb 12 b4 13 3a 8c db e3 3a cb 72 2c 3b
       -0.0033907327 0.00056344375 0.0017384156 0.002631354
0003b0 b8 80 bd 39 0d 7f db 3a 76 24 ef 39 ac 97 8e 3b
       0.00036144792 0.0016746238 0.00045612798 0.004351577
0003c0 1f bb 73 bb c7 48 46 3b 10 6f 59 ba 62 67 65 3b
       -0.003719039 0.003025578 -0.00082944427 0.0035004248
0003d0 11 c8 04 bb e4 75 1c 3a 07 67 43 3b e8 a4 01 3b
       -0.002026085 0.0005968495 0.0029816048 0.001978213
0003e0 97 60 df 3a 1a c7 19 bb be f1 60 3a 57 bc 02 3b
       0.0017042336 -0.002346462 0.0008580944 0.0019948685
0003f0 ee 8b b6 3a 86 d4 97 3b 77 35 9f 3a 19 df 3d 3b
       0.00139272 0.004633489 0.0012146671 0.0028972088
