Optional1_Sferic/models/residual-1/checkpoint.pth (torch, 12386 bytes, 16 tensors)

blocks.0.layers.0.weight f4 [16, 4]
-0.38048494 0.28497615 0.19552794 -0.17207791 -0.36937034 0.25817576 0.30073816 -0.41681242
0.10732411 -0.25104684 -0.35871214 -0.083290026 0.375278 -0.14109428 0.41475052 0.36785457
0.002029147 0.19499622 0.24551284 0.36969978 0.24792984 -0.014834346 0.0657004 0.23358956
0.206888 0.33211994 -0.34226668 0.19091918 0.36308715 -0.004050363 -0.081532955 -0.2595611
-0.15995792 -0.3884408 -0.18374789 -0.091653794 -0.24729142 0.09863567 -0.20685339 0.32590836
-0.26037666 -0.2907493 -0.26936862 -0.18396884 0.06085146 0.23314369 -0.22613415 -0.050098933
-0.3162886 -0.13258006 -0.04618287 -0.107501864 0.05684591 0.03628433 -0.26355076 -0.37596017
-0.27082822 0.29734266 -0.19113828 -0.120869406 -0.03378568 0.38183022 -0.20080535 -0.3179751
00000000: ecce c2be 65e8 913e 7a38 483e 3135 30be
00000010: 1c1e bdbe 9d2f 843e 5afa 993e 7068 d5be
00000020: becc db3d 3689 80be 1ea9 b7be f693 aabd
00000030: 7024 c03e 057b 10be 2e5a d43e 6f57 bc3e
00000040: 70fb 043b 17ad 473e b867 7b3e 4a49 bd3e
00000050: 52e1 7d3e c20b 73bc ee8d 863d 1a32 6f3e
00000060: 73da 533e a00b aa3e 943d afbe 5180 433e
00000070: 8fe6 b93e e8b8 84bb c0fa a6bd 31e5 84be
00000080: 02cc 23be b6e1 c6be 6828 3cbe fcb4 bbbd
00000090: f639 7dbe 8001 ca3d 60d1 53be 76dd a63e
000000a0: 1750 85be 18dd 94be afea 89be 5462 3cbe
000000b0: 613f 793d 38bd 6e3e b68f 67be 8a34 4dbd
000000c0: 94f0 a1be 11c3 07be 402a 3dbd f029 dcbd
000000d0: 42d7 683d e19e 143d 20f0 86be da7d c0be
000000e0: ffa9 8abe 4c3d 983e c1b9 43be 618a f7bd
000000f0: da62 0abd 407f c33e eb9f 4dbe a2cd a2be

blocks.0.layers.0.bias f4 [16]
-0.38410032 -0.19269615 0.32699615 -0.24339709 -0.008739808 -0.334601 -0.4027545 -0.27321598
0.049034648 0.33571854 -0.07354007 -0.1450273 0.12286118 0.2698674 -0.12982467 -0.16018209
00000000: cca8 c4be 2452 45be 0a6c a73e 163d 79be
00000010: 6931 0fbc d350 abbe d635 cebe f7e2 8bbe
00000020: 8ed8 483d 4de3 ab3e 2d9c 96bd 0982 14be
00000030: a49e fb3d 0f2c 8a3e c2f0 04be c606 24be

blocks.1.layers.0.weight f4 [16, 16]
0.03529987 -0.16286792 0.077992365 -0.023848088 -0.12504476 -0.017802997 -0.1712036 -0.21034218
-0.055802327 -0.11499488 0.08698061 -0.12481523 0.1617546 -0.046145555 -0.03068955 0.10086517
-0.1700356 0.11106104 0.008103782 -0.11665193 -0.1380037 0.0492651 -0.20074451 -0.0894551
-0.08562717 -0.20822062 0.047675185 0.14663851 0.13635167 0.06805968 0.022301361 -0.0028938295
-0.16315863 -0.056161206 -0.07137565 -0.10909285 -0.08692954 0.04199246 -0.16431946 -0.14831011
-0.12976678 -0.015317843 -0.13099882 0.17435876 0.17712098 0.16569479 0.07398105 0.17501006
0.104121074 -0.17100424 -0.06393956 0.045761604 -0.12946554 0.011084743 0.041401446 0.106653914
-0.108004205 0.1591522 -0.11273423 0.09099203 0.045490038 -0.041779123 0.116952546 0.1426597
-0.06732924 0.11814627 -0.11403668 -0.13435657 0.20427097 0.15044717 -0.18718266 0.098622285
-0.052280344 0.15587328 -0.13461831 -0.07277734 0.1923427 0.11961415 0.10351176 0.023245584
-0.047875796 0.018151872 -0.1390662 -0.13967033 -0.087324075 0.16291079 0.08644249 -0.14766183
0.18028557 -0.12769048 0.06277431 -0.1210862 -0.11103515 0.09343334 0.17812857 -0.026372148
0.18130362 0.18610558 -0.19020279 -0.1671252 -0.1008143 0.00135677 0.064613 0.18918163
0.06409409 0.13440673 0.15326257 0.18724014 -0.17800967 0.13207743 -0.050966896 0.009381132
0.060767487 0.09861698 0.06322611 0.022217983 -0.015089185 0.065280855 0.06907186 0.094651386
0.16670342 -0.21142423 -0.056786854 -0.13800469 0.14900525 -0.19495055 -0.13859606 -0.13347633
-0.17340073 0.094746955 0.08381152 -0.14910266 -0.16418745 -0.11782869 0.06298188 -0.09168586
0.008743572 0.20085625 0.10370838 -0.19687694 -0.20318644 0.09200617 0.00602532 -0.05583113
-0.16025993 -0.206515 0.05778239 0.015220709 0.030266134 -0.012545211 0.09442325 -0.1676995
0.028645195 0.054559737 -0.11950281 0.10785098 0.18013993 0.13964956 0.20591308 0.09324688
-0.0024269908 0.06516561 -0.18469386 0.07582273 -0.06403222 0.1419881 0.1616165 0.030641008
-0.08953494 -0.15757474 -0.14274026 -0.20876707 -0.13994096 0.16423847 0.12785518 -0.00027658246
-0.06166724 0.21498169 -0.01482445 0.19527617 0.012293515 -0.15545325 -0.2077109 -0.17176029
-0.18976368 0.06320796 -0.069198415 -0.160834 -0.061330486 0.06271491 0.08509312 -0.111441955
-0.05970697 0.14217009 -0.14811835 -0.12316888 -0.08022891 0.08127136 -0.11438244 -0.029892761
0.009217957 -0.03754754 -0.21499833 0.13086556 0.023998387 0.07972273 0.2102199 -0.059865277
-0.10601472 -0.14132392 -0.0042918203 0.10930649 0.20032981 -0.14182398 0.07010107 -0.04499956
0.2071484 0.14203453 0.16766126 0.11180984 -0.11561847 -0.07051296 0.12011033 0.10936279
-0.14964636 -0.0773237 -0.18355341 -0.07647041 0.06458405 0.01128477 -0.1637194 -0.13769193
-0.08923208 0.02845721 -0.16425325 -0.074071154 -0.11943155 -0.06561818 0.156168 -0.14248818
-0.016964208 0.022994267 -0.1456345 0.026205221 -0.051972 0.17102323 0.08761152 -0.15146337
-0.19579154 0.13794497 -0.02871717 0.019603388 0.1560031 0.040665913 -0.09130211 -0.10337818
00000000: 9996 103d d9c6 26be 76ba 9f3d 115d c3bc
00000010: bc0b 00be 97d7 91bc ff4f 2fbe f163 57be
00000020: fb90 64bd 7082 ebbd e422 b23d 219f ffbd
00000030: ffa2 253e 1f03 3dbd a768 fbbc 6692 ce3d
00000040: d01d 2ebe f873 e33d bac5 043c 35e7 eebd
00000050: d850 0dbe 34ca 493d f88f 4dbe 3c34 b7bd
00000060: 4c5d afbd c937 55be 0e47 433d 6828 163e
00000070: c69f 0b3e e062 8b3d 58b1 b63c 67a6 3dbb
00000080: 0e13 27be 4b09 66bd 662d 92bd 126c dfbd
00000090: 1d08 b2bd 4900 2c3d 5c43 28be 9bde 17be
000000a0: 95e1 04be b1f7 7abc 8e24 06be 1a8b 323e
000000b0: 345f 353e e5ab 293e 6083 973d d635 333e
000000c0: 6e3d d53d bc1b 2fbe bef2 82bd 8570 3b3d
000000d0: 9d92 04be c89c 353c 9094 293d 5e6d da3d
000000e0: 4f31 ddbd cbf8 223e 34e1 e6bd 085a ba3d
000000f0: c353 3a3d 9620 2bbd d184 ef3d 6215 123e
00000100: eae3 89bd acf6 f13d 108c e9bd c594 09be
00000110: 692c 513e d30e 1a3e d0ac 3fbe 7bfa c93d
00000120: ea23 56bd 3f9d 1f3e 62d9 09be 490c 95bd
00000130: 7cf5 443e 43f8 f43d f9fd d33d 866d be3c
00000140: 6919 44bd 3cb3 943c 5f67 0ebe bd05 0fbe
00000150: f7d6 b2bd 16d2 263e c308 b13d aa34 17be
00000160: c89c 383e 4bc1 02be d18f 803d 0bfc f7bd
00000170: 6666 e3bd fb59 bf3d 5667 363e 670a d8bc
00000180: a8a7 393e 7692 3e3e 85c4 42be de22 2bbe
00000190: ba77 cebd a6d5 b13a d253 843d d4b8 413e
000001a0: c343 833d eba1 093e ddf0 1c3e e1bb 3f3e
000001b0: 2b48 36be 4e3f 073e aac2 50bd 52b3 193c
000001c0: 54e7 783d b3f7 c93d b17c 813d 7d02 b63c
000001d0: a138 77bc f8b1 853d 8c75 8d3d 96d8 c13d
000001e0: 4db4 2a3e 987f 58be 5599 68bd 1a51 0dbe
000001f0: d594 183e 1ea1 47be 20ec 0dbe 05ae 08be
00000200: f68f 31be b10a c23d 60a5 ab3d 5eae 18be
00000210: c120 28be 2b50 f1bd a5fc 803d ccc5 bbbd
00000220: 3341 0f3c 43ad 4d3e 0f65 d43d 1c9a 49be
00000230: 1b10 50be bb6d bc3d 0c70 c53b 2faf 64bd
00000240: 2e1b 24be ab78 53be 3aad 6c3d 4860 793c
00000250: aff0 f73c 6e8a 4dbc fa60 c13d 6bb9 2bbe
00000260: 54a9 ea3c 087a 5f3d e4bd f4bd f9e0 dc3d
00000270: 9a76 383e 4b00 0f3e e1da 523e 38f8 be3d
00000280: 260e 1fbb 8c75 853d 6320 3dbe f348 9b3d
00000290: 5323 83bd 5465 113e cc7e 253e da02 fb3c
000002a0: 185e b7bd 465b 21be 812a 12be 09c7 55be
000002b0: af4c 0fbe 212e 283e 78ec 023e 4502 91b9
000002c0: ca96 7cbd 2924 5c3e 40e2 72bc 7af6 473e
000002d0: bd6a 493c 232f 1fbe 2bb2 54be eee1 2fbe
000002e0: 6951 42be 2d73 813d e6b7 8dbd abb1 24be
000002f0: ad35 7bbd ad70 803d 4d45 ae3d ae3b e4bd
00000300: 4c8f 74bd 0995 113e 56ac 17be f73f fcbd
00000310: 0e4f a4bd 9971 a63d 5741 eabd aae1 f4bc
00000320: ea06 173c 73cb 19bd 8628 5cbe 9f01 063e
00000330: 4498 c43c ac45 a33d e343 573e 4b35 75bd
00000340: 3f1e d9bd 38b7 10be 66a2 8cbb 15dc df3d
00000350: 4223 4d3e 4e3a 11be 2691 8f3d 7551 38bd
00000360: b61e 543e 8071 113e 65af 2b3e 8ffc e43d
00000370: 60c9 ecbd 1969 90bd 68fc f53d 99f9 df3d
00000380: e53c 19be e35b 9ebd 6df5 3bbe 859c 9cbd
00000390: a444 843d c2e3 383c 0fa6 27be 1dff 0cbe
000003a0: 4fbf b6bd 181f e93c 0132 28be 9eb2 97bd
000003b0: 8798 f4bd d362 86bd 81ea 1f3e 6ce8 11be
000003c0: 86f8 8abc 795e bc3c 3621 15be 55ac d63c
000003d0: 98e0 54bd b720 2f3e ab6d b33d 3719 1bbe
000003e0: 947d 48be 7241 0d3e 4540 ebbc 4997 a03c
000003f0: 47bf 1f3e 4d91 263d 9afc babd f0b7 d3bd

blocks.1.layers.0.bias f4 [16]
0.08744226 0.026321502 -0.17638643 -0.028136816 0.16472179 0.07959362 -0.16551027 0.058461558
-0.15518157 -0.092545114 -0.07653285 0.08457951 -0.18755065 -0.14552145 0.040725734 0.05288032
00000000: ed14 b33d 31a0 d73c a59e 34be 2e7f e6bc
00000010: d4ac 283e fb01 a33d 867b 29be 6375 6f3d
00000020: ebe7 1ebe 4b88 bdbd 41bd 9cbd 0638 ad3d
00000030: 470d 40be 9303 15be 07d0 263d 0999 583d

blocks.2.layers.0.weight f4 [16, 16]
0.095307924 -0.031427067 0.1036941 0.071143255 -0.015731562 -0.05195303 -0.13035074 -0.14936365
-0.13167325 -0.1923959 -0.20470484 0.039318964 0.18661305 -0.16955094 -0.15768908 0.2150112
-0.21301816 -0.016482688 -0.051247254 -0.030065438 0.14219786 -0.18841702 0.086998805 0.16894771
0.20256081 0.1556979 -0.04180446 0.11488196 0.100822225 -0.0923456 0.03359668 0.032679766
-0.07793458 0.17598623 0.14039548 0.12713277 0.13833843 0.18486944 -0.003179707 -0.18809779
-0.1605686 -0.06730037 0.0019591919 -0.12779394 -0.016412359 -0.124275886 -0.1575988 -0.10924415
-0.011929778 -0.18673544 0.14423974 -0.16015537 0.15380833 0.061014943 -0.09723512 0.19484726
0.1501837 0.034540396 -0.020436682 -0.14645034 -0.070333004 -0.019409224 0.00904947 0.13453338
-0.10112162 0.13835992 0.17744598 -0.1802015 -0.058786042 -0.07735583 0.11920243 -0.15445839
-0.14037573 -0.03390219 0.0740666 -0.021396711 -0.1107947 -0.14028633 -0.20026845 -0.02388473
0.05757283 0.14139861 -0.16640854 -0.1838642 -0.13640267 -0.14357688 -0.15857992 0.06644341
0.17701945 -0.0920248 -0.11710092 -0.036959875 0.18714035 0.11270126 0.04323301 -0.18887006
0.035473257 -0.03760642 -0.113957085 0.16871676 -0.18900709 -0.012670646 -0.18794243 0.16438073
-0.09583059 0.13734475 0.03499635 0.19063324 -0.10478404 -0.101219356 0.0067233196 0.1727305
0.1185628 0.17495866 0.16610044 0.1577647 0.16281456 0.18705055 0.120730534 0.1571401
-0.17017046 -0.19929948 -0.17552286 0.14967951 0.13007048 -0.18216932 -0.109140165 0.14261024
-0.054745313 -0.16734199 0.06264676 -0.13779967 0.025938528 -0.09449031 0.08871821 0.006985964
-0.12325091 0.113070756 -0.008512992 -0.1832079 0.0724517 0.07359874 0.080157675 0.046727836
-0.08070957 0.14676984 -0.14727513 -0.113787025 0.058307238 -0.071115665 0.099062435 0.18083175
-0.056175232 0.13839932 0.083924726 0.057362236 -0.14360435 -0.20533065 -0.201193 -0.12848601
0.053766824 0.14612767 -0.03134628 0.15577826 -0.12876514 -0.1772404 -0.029503543 0.038481925
-0.1500313 0.046702538 -0.15855731 0.16109861 -0.047701813 -0.15326256 0.10007536 0.029401219
0.11700873 0.08417595 -0.18161456 0.09310661 0.19327849 0.049146302 0.16878194 0.06741816
0.20483859 0.21121112 -0.032455347 0.12441176 0.109971985 0.08412732 0.016855989 -0.066141136
0.110610634 -0.12236912 0.076728314 -0.057301905 0.05668449 -0.053205732 0.18916856 -0.15860324
0.14230819 -0.2173844 0.0077414215 -0.20341441 -0.13676405 -0.0495557 0.040851723 0.024040293
-0.03652126 0.08391117 0.15077509 0.16070008 0.15220997 0.19574562 -0.01753456 -0.1790854
-0.065895885 0.071543716 -0.18409474 -0.1743836 0.030029938 -0.173772 -0.1675036 -0.12645365
0.18213062 -0.13185605 -0.14920859 -0.025163712 -0.18448704 0.0415406 -0.083291024 0.083778806
0.10122648 0.12906949 0.20052363 0.054296304 -0.18447004 0.16297832 0.17332421 -0.057624824
-0.08995013 0.023256004 -0.07204876 0.0015018211 0.09570348 0.048717976 -0.05644958 -0.0908586
-0.17902425 -0.05132151 -0.07947915 -0.109345295 -0.16298471 -0.038746245 -0.09678898 -0.032811135
00000000: cd30 c33d abb9 00bd 935d d43d 8eb3 913d
00000010: 7adf 80bc b3cc 54bd aa7a 05be c9f2 18be
00000020: 5ad5 06be 6e03 45be 259e 51be ec0c 213d
00000030: 7e17 3f3e c39e 2dbe 3f79 21be e52b 5c3e
00000040: 6f21 5abe b406 87bc a4e8 51bd cb4b f6bc
00000050: 519c 113e 64f0 40be 6e2c b23d a100 2d3e
00000060: 1a6c 4f3e 456f 1f3e 273b 2bbd 3c47 eb3d
00000070: e27b ce3d b11f bdbd ac9c 093d 38db 053d
00000080: 2a9c 9fbd bc35 343e d5c3 0f3e 182f 023e
00000090: 97a8 0d3e 6a4e 3d3e a262 50bb b59c 40be
000000a0: 186c 24be c7d4 89bd c965 003b 6adc 02be
000000b0: 3673 86bc 5b84 febd 9461 21be 66bb dfbd
000000c0: 1e75 43bc 9337 3fbe 95b3 133e c5ff 23be
000000d0: ee7f 1d3e ceea 793d 3523 c7bd 0a86 473e
000000e0: c1c9 193e 3b7a 0d3d d46a a7bc 14f7 15be
000000f0: c00a 90bd 1800 9fbc 3a44 143c 1ec3 093e
00000100: da18 cfbd 39ae 0d3e 66b4 353e be86 38be
00000110: a2c9 70bd bc6c 9ebd 6720 f43d 572a 1ebe
00000120: a8be 0fbe 06dd 0abd 3bb0 973d 2848 afbc
00000130: 55e8 e2bd 38a7 0fbe 2c13 4dbe e9a9 c3bc
00000140: 7dd1 6b3d ccca 103e 0067 2abe e646 3cbe
00000150: 24ad 0bbe d105 13be c662 22be 7c13 883d
00000160: 9644 353e 8077 bcbd 9bd2 efbd 3d63 17bd
00000170: b8a1 3f3e ebcf e63d 1915 313d 2767 41be
00000180: 684c 113d 3109 1abd 5562 e9bd 16c4 2c3e
00000190: 138b 41be 8b98 4fbc fb73 40be 6c53 283e
000001a0: d442 c4bd 1aa4 0c3e 5558 0f3d 5c35 433e
000001b0: 0499 d6bd 184c cfbd 4b4f dc3b 44e0 303e
000001c0: 0ed1 f23d 5d28 333e 3c16 2a3e 128d 213e
000001d0: dcb8 263e 2e8a 3f3e 9241 f73d 56e9 203e
000001e0: 2a41 2ebe 2a15 4cbe 44bc 33be 9645 193e
000001f0: 3231 053e 988a 3abe e184 dfbd 6b08 123e
00000200: 9f3c 60bd b35b 2bbe f24c 803d 5b1b 0dbe
00000210: 097d d43c 2384 c1bd e5b1 b53d 83ea e43b
00000220: f96a fcbd a491 e73d 147a 0bbc da9a 3bbe
00000230: 8f61 943d f0ba 963d b529 a43d b065 3f3d
00000240: 0f4b a5bd d54a 163e 4bcf 16be 2c09 e9bd
00000250: 92d3 6e3d 17a5 91bd 3fe1 ca3d f52b 393e
00000260: 0018 66bd 8db8 0d3e bae0 ab3d aaf4 6a3d
00000270: 050d 13be 3342 52be 8a05 4ebe d691 03be
00000280: 9a3a 5c3d 7ea2 153e f564 00bd 5684 1f3e
00000290: 02db 03be 827e 35be 6ab1 f1bc 399f 1d3d
000002a0: cea1 19be 294b 3f3d d95c 22be 09f7 243e
000002b0: fa62 43bd dcf0 1cbe 4ff4 cc3d d3da f03c
000002c0: 46a2 ef3d 7164 ac3d 2bf9 39be aeae be3d
000002d0: ccea 453e a24d 493d 2cd5 2c3e 8812 8a3d
000002e0: 35c1 513e ba47 583e e6ef 04bd 98cb fe3d
000002f0: fe38 e13d f24a ac3d 9215 8a3c 0175 87bd
00000300: d487 e23d a99c fabd bc23 9d3d 67b5 6abd
00000310: ff2d 683d 41ee 59bd 67b5 413e e368 22be
00000320: 3db9 113e 049a 5ebe c0ab fd3b de4b 50be
00000330: e00b 0cbe ebfa 4abd 2354 273d 26f0 c43c
00000340: 5197 15bd 9fd9 ab3d c964 1a3e 908e 243e
00000350: eedc 1b3e 8a71 483e a3a4 8fbc 2a62 37be
00000360: 6cf4 86bd 8385 923d 5583 3cbe 9d91 32be
00000370: 5801 f63c 4af1 31be 1086 2bbe 117d 01be
00000380: 7380 3a3e 4605 07be 23ca 18be 2124 cebc
00000390: 2cea 3cbe 7a26 2a3d 7c94 aabd 3994 ab3d
000003a0: d44f cf3d cb2a 043e 1156 4d3e cd65 5e3d
000003b0: b7e5 3cbe cae3 263e e77b 313e 0208 6cbd
000003c0: c637 b8bd 6083 be3c 4d8e 93bd c1d8 c43a
000003d0: 3000 c43d 808c 473d ad37 67bd 1314 babd
000003e0: 2252 37be 8136 52bd f7c5 a2bd 6df0 dfbd
000003f0: 77e5 26be 62b4 1ebd 4d39 c6bd f864 06bd

blocks.2.layers.0.bias f4 [16]
-0.07152559 -0.16660568 0.085693106 -0.06868062 -0.07993567 0.12703617 0.14849493 -0.017830648
0.08564411 -0.036685795 0.08781858 -0.04834494 0.12000067 0.13867061 0.008250657 -0.19288754
00000000: 027c 92bd ae9a 2abe de7f af3d 6da8 8cbd
00000010: 50b5 a3bd c515 023e 0e0f 183e 9411 92bc
00000020: 2e66 af3d d843 16bd 3ada b33d 5805 46bd
00000030: e9c2 f53d abff 0d3e c32d 073c 5084 45be

out.weight f4 [2, 16]
-0.57714343 0.3741909 -0.25363243 0.5079497 -0.13507023 0.1494466 0.18807976 -0.41839498
0.5711528 -0.6295566 0.09953546 0.118766636 0.44266135 -0.18299358 0.32681042 0.30052078
-0.5886232 0.14148915 -0.20135395 -0.520061 0.122464895 -0.13778293 -0.32639462 0.29062635
0.65098304 -0.52767897 -0.06440594 0.49679622 -0.44278315 0.23235494 -0.03527899 -0.08770253
00000000: acbf 13bf f395 bf3e 1cdc 81be fe08 023f
00000010: da4f 0abe 8808 193e fb97 403e de37 d6be
00000020: 1237 123f 9f2a 21bf 3fd9 cb3d ec3b f33d
00000030: 82a4 e23e ab62 3bbe b253 a73e dcdd 993e
00000040: 03b0 16bf 88e2 103e bb2f 4ebe b822 05bf
00000050: e0ce fa3d f816 0dbe 321d a7be facc 943e
00000060: d3a6 263f f815 07bf 43e7 83bd 135c fe3e
00000070: 79b4 e2be 74ee 6d3e b480 10bd 629d b3bd

out.bias f4 [2]
-0.046501145 0.074920304
00000000: fc77 3ebd d16f 993d

momentum_buffer f4 [16, 4]
-3.990254 2.7273693 1.7634276 -0.7902409 -3.2937539 2.4235647 3.1215153 -4.544136
1.2502314 -2.202858 -3.9130654 0.386564 3.9759295 -1.8395663 4.247008 4.1017923
0.17722027 1.9409702 2.24242 2.828395 2.5422242 -0.16755116 0.5959419 2.4996583
2.0673003 3.4830103 -3.495242 1.9815676 3.384127 -0.035697553 -0.71697354 -2.4465022
-1.4389368 -4.3446536 -1.3305358 -2.9387505 -2.8028753 1.4845942 -2.401246 4.7374725
-2.906973 -3.0945117 -2.803306 -2.0703075 0.670077 2.0718231 -1.769063 -0.6017548
-4.581634 -1.3433522 -1.2209425 -0.8927741 0.7989191 0.23096995 -1.9144493 -3.9952607
-3.5039022 3.1518598 -2.4354088 -2.005338 -0.99987847 4.0787587 -2.6572924 -3.438207
00000000: 5260 7fc0 388d 2e40 ffb7 e13f 3a4d 4abf
00000010: ddcc 52c0 af1b 1b40 e8c6 4740 9069 91c0
00000020: 9507 a03f a0fb 0cc0 aa6f 7ac0 b7eb c53e
00000030: a175 7e40 e976 ebbf 7de7 8740 e241 8340
00000040: 3b79 353e b671 f83f cf83 0f40 6c04 3540
00000050: cdb3 2240 8892 2bbe a68f 183f 67fa 1f40
00000060: a64e 0440 a4e9 5e40 0cb2 5fc0 02a4 fd3f
00000070: 8995 5840 9937 12bd 948b 37bf 7e93 1cc0
00000080: 152f b8bf 6707 8bc0 ff4e aabf 7d14 3cc0
00000090: 4f62 33c0 2f07 be3f 04ae 19c0 6099 9740
000000a0: d80b 3ac0 7b0c 46c0 5e69 33c0 eb7f 04c0
000000b0: 2b8a 2b3f c098 0440 a870 e2bf 9a0c 1abf
000000c0: bf9c 92c0 f7f2 abbf d847 9cbf d88c 64bf
000000d0: f685 4c3f 6383 6c3e ad0c f5bf 5ab2 7fc0
000000e0: ef3f 60c0 12b8 4940 bddd 1bc0 7557 00c0
000000f0: 09f8 7fbf 3185 8240 1411 2ac0 950b 5cc0

momentum_buffer f4 [16]
-3.6542163 -1.6714237 3.269737 -1.6849719 -0.8009646 -2.966866 -3.5416665 -2.7308426
0.7016529 4.806134 -0.14702997 -1.6422148 2.6038244 2.3115795 -0.27309054 -0.70000046
00000000: aede 69c0 36f1 d5bf 5f43 5140 29ad d7bf
00000010: 040c 4dbf 22e1 3dc0 aaaa 62c0 20c6 2ec0
00000020: 869f 333f dacb 9940 068f 16be 1834 d2bf
00000030: 0fa5 2640 ebf0 1340 86d2 8bbe 3b33 33bf

momentum_buffer f4 [16, 16]
0.27401268 -1.8017617 0.7969661 -0.16201288 -1.1439623 -0.14754756 -1.612555 -2.0720165
-0.6542245 -0.63867193 0.694898 -1.1799886 1.4490169 -0.7243467 -0.28440446 0.9018662
-1.5615631 1.2276554 0.11899478 -1.1064777 -1.3088337 0.46907532 -1.9143405 -0.8212473
-0.755677 -1.9871038 0.5042509 1.3966177 1.3778336 0.7671888 0.23556234 0.014211724
-1.566475 -0.5876976 -0.66073155 -1.0387222 -0.82835215 0.39982924 -1.5529784 -1.4274876
-1.2338136 -0.104808606 -1.2432623 1.6605228 1.6883483 1.546631 0.705801 1.6366941
1.1893207 -1.3048357 0.200147 0.7724263 -0.86874247 0.18321705 0.67864424 1.0451753
-0.5798183 3.0485468 -0.5619894 1.0971868 1.1814319 0.23398489 1.7598408 1.8082607
-0.77440363 0.8985541 -1.3995225 -1.4625716 1.8104129 1.3936472 -1.8808565 0.94876873
-0.73113734 0.9059378 -1.532247 -0.7708905 1.451864 0.87788254 0.7087125 0.049888536
-0.43638018 0.20331103 -1.1877658 -1.3305033 -0.83075285 1.5511866 0.83926755 -1.4085367
1.8119196 -1.0785846 0.72062415 -1.1253715 -0.93980384 1.0241936 1.8006233 -0.17559494
1.7934266 1.8992897 -1.6997 -1.5916026 -0.9432803 0.014344159 0.6681331 1.8148372
0.6976172 1.4357795 1.579747 1.8351183 -1.5425308 1.4323834 -0.34058282 0.21846525
0.4968616 0.7699359 0.3435043 -0.0378737 -0.2029435 0.58029807 0.65634215 0.8877446
1.3469476 -2.1346726 -0.70613897 -1.3138785 1.216251 -2.0113807 -1.3765979 -1.2968886
-1.6396772 0.9589584 0.83013535 -1.4369361 -1.6600306 -1.1378597 0.41242018 -0.804726
0.3144904 1.3674239 1.2323841 -1.955578 -1.8362452 1.1142452 0.028135777 -0.51131505
-1.4751078 -1.9894102 0.84625375 0.40878022 0.7634906 -0.038774464 1.2116176 -1.6559713
0.22384128 1.8468398 -1.1835591 1.1765261 1.9046003 1.2659782 2.1873696 0.9713049
-0.012887239 0.64264333 -1.7440453 0.7451108 -0.60068166 1.3573633 1.5550253 0.30066973
-0.85147464 -1.4909123 -1.3572485 -1.9667743 -1.3237469 1.6070395 1.2465473 0.04537826
-0.65065455 2.0853188 -0.4293035 1.5135844 -0.19895925 -1.5553596 -2.030053 -1.6033716
-1.9395493 -0.11239167 -0.760559 -1.5504694 -0.80248606 0.60558146 0.65551573 -1.0662893
-0.48769438 1.5132205 -1.3990153 -1.1727463 -0.76237315 0.77382135 -1.0856526 -0.27940878
0.10725091 -0.3287546 -2.0158713 1.25866 0.30953234 0.84397936 2.0701025 -0.50066763
-1.0559998 -1.4077165 -0.46911126 0.8432685 1.6423653 -1.4006315 0.4996638 -0.43402424
1.7505938 0.53168786 1.3766929 0.96001995 -1.3949679 -0.90365255 0.9100978 0.89444476
-1.434333 -0.7458926 -1.755306 -0.7322379 0.5291377 0.11002285 -1.5674503 -1.3110112
-0.8505438 0.14751609 -1.5640287 -0.7075443 -1.1541848 -0.6255581 1.4782505 -1.3572526
-0.012690095 0.52377206 -0.9888976 0.44762802 -0.4068838 1.6679673 0.93049514 -1.4324433
-1.5370742 2.0209112 0.095935024 0.27862844 2.0225585 0.7719059 -0.4837306 -0.74360365
00000000: 644b 8c3e 21a0 e6bf f805 4c3f b4e6 25be
00000010: 5b6d 92bf b516 17be 3468 cebf eb9b 04c0
00000020: 427b 27bf 0180 23bf d6e4 313f de09 97bf
00000030: 6379 b93f c96e 39bf 769d 91be b4e0 663f
00000040: 4de1 c7bf d023 9d3f 89b3 f33d 10a1 8dbf
00000050: dd87 a7bf a42a f03e 1c09 f5bf 433d 52bf
00000060: 0c74 41bf 6b59 febf 9616 013f 5ec4 b23f
00000070: da5c b03f 7c66 443f 4137 713e 4ad8 683c
00000080: 4182 c8bf 5a73 16bf b425 29bf d9f4 84bf
00000090: e30e 54bf 6bb6 cc3e ffc7 c6bf eab7 b6bf
000000a0: 9bed 9dbf e5a5 d6bd 3823 9fbf 038c d43f
000000b0: cc1b d83f 01f8 c53f 60af 343f 317f d13f
000000c0: a93b 983f db04 a7bf 56f3 4c3e bbbd 453f
000000d0: e865 5ebf 409d 3b3e a1bb 2d3f 4ec8 853f
000000e0: f96e 14bf 641b 4340 8ade 0fbf 9e70 8c3f
000000f0: 2939 973f bc99 6f3e 7742 e13f 1675 e73f
00000100: 513f 46bf a407 663f 8e23 b3bf 8c35 bbbf
00000110: 9cbb e73f 0863 b23f e8bf f0bf 82e2 723f
00000120: d12b 3bbf 8aeb 673f ab20 c4bf 1459 45bf
00000130: aed6 b93f e9bc 603f 2f6e 353f ec57 4c3d
00000140: 396d dfbe c430 503e b608 98bf ef4d aabf
00000150: 38ac 54bf 488d c63f 3dda 563f ee4a b4bf
00000160: fbec e73f 0f0f 8abf d37a 383f 2c0c 90bf
00000170: fc96 70bf c718 833f d37a e63f 29cf 33be
00000180: 018f e53f ed1b f33f c58f d9bf a2b9 cbbf
00000190: d17a 71bf c303 6b3c c50a 2b3f 964c e83f
000001a0: 0a97 323f 9fc7 b73f 2635 ca3f 28e5 ea3f
000001b0: a671 c5bf 5758 b73f df60 aebe 5bb5 5f3e
000001c0: a564 fe3e 851a 453f ccdf af3e 7421 1bbd
000001d0: 6cd0 4fbe 6a8e 143f 0a06 283f 3b43 633f
000001e0: c768 ac3f 7a9e 08c0 86c5 34bf 2c2d a8bf
000001f0: 1dae 9b3f 76ba 00c0 5c34 b0bf 7200 a6bf
00000200: f1e0 d1bf 4c7e 753f c083 543f 86ed b7bf
00000210: e27b d4bf 63a5 91bf bd28 d33e 8602 4ebf
00000220: e304 a13e bf07 af3f c3be 9d3f 6150 fabf
00000230: 150a ebbf 969f 8e3f 007d e63c 8be5 02bf
00000240: 55d0 bcbf fea4 febf 16a4 583f a44b d13e
00000250: 1f74 433f f9d1 1ebd 4916 9b3f def6 d3bf
00000260: a636 653e 3f65 ec3f dd7e 97bf 6898 963f
00000270: f1c9 f33f 930b a23f ddfd 0b40 70a7 783f
00000280: 0025 53bc 4684 243f e03c dfbf 95bf 3e3f
00000290: 46c6 19bf 15be ad3f 120b c73f 62f1 993e
000002a0: 3efa 59bf 37d6 bebf 52ba adbf 43bf fbbf
000002b0: 8a70 a9bf 78b3 cd3f dd8e 9f3f 8ede 393d
000002c0: 4c91 26bf dd75 0540 abcd dbbe 22bd c13f
000002d0: f9bb 4bbe 0616 c7bf 63ec 01c0 483b cdbf
000002e0: 2743 f8bf 9b2d e6bd ffb3 42bf c875 c6bf
000002f0: ba6f 4dbf 6307 1b3f e1cf 273f 2b7c 88bf
00000300: 14b3 f9be 36b1 c13f ef12 b3bf 8d1c 96bf
00000310: e32a 43bf 2819 463f aaf6 8abf ab0e 8fbe
00000320: 5da6 db3d 8652 a8be 0904 01c0 c51b a13f
00000330: 067b 9e3e 080f 583f 8f7c 0440 c12b 00bf
00000340: 002b 87bf 0e30 b4bf 5a2f f0be 72e0 573f
00000350: 0739 d23f e547 b3bf efd3 ff3e 6d38 debe
00000360: 7513 e03f b21c 083f 7937 b03f dec3 753f
00000370: 4f8e b2bf c655 67bf 2bfc 683f 55fa 643f
00000380: 3998 b7bf d1f2 3ebf dead e0bf f173 3bbf
00000390: 9175 073f a953 e13d 36a2 c8bf 37cf a7bf
000003a0: 3dbd 59bf 750e 173e 1832 c8bf a021 35bf
000003b0: 54bc 93bf 9324 20bf 5037 bd3f 74ba adbf
000003c0: 1eea 4fbc ed15 063f 6528 7dbf 802f e53e
000003d0: 1353 d0be f47f d53f ee34 6e3f 4d5a b7bf
000003e0: d9be c4bf 9c56 0140 9579 c43d 63a8 8e3e
000003f0: 9971 0140 a09b 453f 8aab f7be cf5c 3ebf

momentum_buffer f4 [16]
0.87397295 0.4205143 -1.7030278 1.3672454 0.8649535 0.90538883 -1.3613931 0.073520936
-1.6797035 0.06760892 -0.68028146 0.15763646 -1.665509 -2.192461 0.3036726 1.3909252
00000000: b1bc 5f3f a64d d73e d1fc d9bf e601 af3f
00000010: 986d 5d3f 90c7 673f 2142 aebf 2592 963d
00000020: 8600 d7bf 8c76 8a3d ed26 2ebf 746b 213e
00000030: 662f d5bf 4851 0cc0 fa7a 9b3e d609 b23f

momentum_buffer f4 [16, 16]
0.9082466 -0.29975584 0.9916922 0.6910526 -0.1445801 -0.49187806 -1.2412844 -1.4210972
-1.2533709 -1.8292075 -1.9491293 0.37701762 1.7774298 -1.6144624 -1.5016085 2.0480764
-1.9638005 -0.03116934 -0.37670845 -0.3240836 1.2021327 -1.7690556 0.8250507 1.6498162
2.091286 1.4295695 -0.20009212 1.0910461 1.1299778 -0.6735529 0.450512 0.4054946
-0.7637175 1.5011023 1.4575136 1.3701526 1.5822296 1.7653239 0.021799281 -1.827678
-1.546111 -0.21471836 -0.027416093 -1.183576 -0.18485832 -1.234014 -1.5019699 -1.0212142
0.312153 -1.2819577 2.8985994 -0.75012106 2.5327358 0.8204419 -0.5228098 2.012719
2.5247147 2.709316 0.78595877 -1.009282 0.44581977 1.1946422 0.8823457 2.1555138
-0.9628253 1.3173875 1.688943 -1.7158724 -0.55971307 -0.73659277 1.1349155 -1.4706638
-1.3368757 -0.32322437 0.70506865 -0.20370644 -1.054967 -1.3358094 -1.9068539 -0.22744745
0.68717647 1.5461544 -1.3378079 -1.7110178 -1.172754 -1.3212467 -1.4801321 0.6658074
1.9409119 -0.5992657 -0.8657411 -0.32154858 2.064637 1.3304158 0.55703783 -1.6859202
0.56394553 -0.11998099 -0.4003988 2.1698759 -1.1341783 0.0013201134 -1.5502232 1.6182876
-0.46796024 2.65253 0.7148409 2.055504 -0.45811707 -0.39388186 0.4783808 2.1027827
0.94130874 1.296635 1.3288611 1.0827737 1.2011474 1.6626709 0.9736607 1.4148333
-1.811448 -2.2756088 -1.8269387 1.2305038 0.95219004 -2.059046 -1.2571546 1.0429835
-0.53971267 -1.4253805 0.50914055 -1.7166857 -0.5514149 -0.8917275 0.58694834 0.24428402
-1.0281833 -0.35232478 0.12416977 -1.9060022 0.625775 0.96099067 0.67912805 0.3325661
-0.71819764 1.3546517 -1.2829809 -0.8830811 1.1877863 -0.66194886 1.0867246 1.6943583
-0.5212288 2.0835016 0.7953704 0.64894176 -1.2589071 -1.8960624 -1.8386867 -1.0848963
0.5615218 1.4789846 -0.20340729 1.6250557 -1.0934806 -1.6585771 -0.21445212 0.38997167
-1.3802536 0.64928144 -1.4700012 1.6049948 -0.3669578 -1.3454264 1.0373679 0.3985899
0.99963146 0.8844396 -2.222396 0.34974 1.1226541 0.39935493 1.3786478 0.7151468
1.7249765 0.55709773 -0.4728021 1.0031016 0.72267884 0.59744865 -0.11370512 -0.9050958
1.1979257 -1.0190697 1.5320164 -0.1305835 0.816113 -0.3700017 1.9489378 -1.3758194
1.9308399 -1.4748636 0.46961793 -1.8070433 -0.97818875 0.09586161 0.52301985 0.45503664
-0.43048745 0.73393613 1.1534586 1.2424042 1.1478043 1.8123369 -0.23743762 -1.7339094
-0.83641154 0.12380424 -1.8871632 -1.741943 0.07209703 -1.808184 -1.7020726 -1.3264632
1.9421483 -0.93337697 -0.8408164 -0.07739244 -1.4865396 0.48973846 -0.67500323 0.9069167
1.4401748 1.8546033 2.3713155 0.6398626 -1.287701 2.190528 1.9755967 -0.21268125
-0.8564559 0.2214309 -0.68600893 0.0142995175 0.9112361 0.46386594 -0.537482 -0.86510587
-1.7045708 -0.48865533 -0.756757 -1.041126 -1.5518512 -0.36892053 -0.92157173 -0.31240964
00000000: d982 683f 9979 99be 8adf 7d3f d3e8 303f
00000010: ce0c 14be 71d7 fbbe 68e2 9ebf 83e6 b5bf
00000020: 756e a0bf 7923 eabf 127d f9bf 7408 c13e
00000030: d282 e33f b4a6 cebf b534 c0bf af13 0340
00000040: d15d fbbf d856 ffbc eedf c0be 49ee a5be
00000050: 7cdf 993f 6a70 e2bf 8636 533f 2d2d d33f
00000060: a1d7 0540 22fc b63f f3e4 4cbe 66a7 8b3f
00000070: 1da3 903f f66d 2cbf 82a9 e63e fd9c cf3e
00000080: fd82 43bf 1f24 c03f ce8f ba3f 2961 af3f
00000090: 8086 ca3f 22f6 e13f 6894 b23c 5af1 e9bf
000000a0: f7e6 c5bf 21df 5bbe b797 e0bc 6b7f 97bf
000000b0: 804b 3dbe 2cf4 9dbf 8d40 c0bf 26b7 82bf
000000c0: 85d2 9f3e 3117 a4bf a782 3940 ef07 40bf
000000d0: 5818 2240 7b08 523f ddd6 05bf 63d0 0040
000000e0: ed94 2140 6f65 2d40 9834 493f 2730 81bf
000000f0: 7d42 e43e 09ea 983f 68e1 613f f0f3 0940
00000100: b87b 76bf 27a0 a83f 492f d83f b5a1 dbbf
00000110: 5b49 0fbf 5891 3cbf e944 913f b63e bcbf
00000120: be1e abbf aa7d a5be 617f 343f 6c98 50be
00000130: 2909 87bf cdfb aabf ca13 f4bf fce7 68be
00000140: ccea 2f3f 63e8 c53f 4a3d abbf a202 dbbf
00000150: ce1c 96bf 9d1e a9bf f874 bdbf 5b72 2a3f
00000160: cd6f f83f 7a69 19bf 35a1 5dbf 04a2 a4be
00000170: 0323 0440 114b aa3f 089a 0e3f 3ccc d7bf
00000180: bc5e 103f 98b8 f5bd 1201 cdbe 3fdf 0a40
00000190: c12c 91bf a807 ad3a b76d c6bf 0c24 cf3f
000001a0: 7c98 efbe 0dc3 2940 d0ff 363f 618d 0340
000001b0: 528e eabe e2aa c9be 54ee f43e fe93 0640
000001c0: 9cf9 703f 23f8 a53f 1f18 aa3f 5498 8a3f
000001d0: 33bf 993f 66d2 d43f d441 793f 4219 b53f
000001e0: 87dd e7bf 93a3 11c0 21d9 e9bf 2681 9d3f
000001f0: bac2 733f 69c7 03c0 71ea a0bf 7c80 853f
00000200: 9c2a 0abf de72 b6bf 0957 023f 5bbc dbbf
00000210: 8729 0dbf 4148 64bf 3f42 163f 9725 7a3e
00000220: 839b 83bf ea63 b4be b84c fe3d e1f7 f3bf
00000230: ca32 203f 7c03 763f 56db 2d3f 1b46 aa3e
00000240: cddb 37bf 3a65 ad3f b838 a4bf 9a11 62bf
00000250: 6209 983f 7b75 29bf cb19 8b3f bce0 d83f
00000260: 406f 05bf 1758 0540 659d 4b3f 0c21 263f
00000270: de23 a1bf 2cb2 f2bf 165a ebbf e2dd 8abf
00000280: e5bf 0f3f 5e4f bd3f 004a 50be d301 d03f
00000290: 2cf7 8bbf 414c d4bf 5699 5bbe 5eaa c73e
000002a0: 26ac b0bf 4f37 263f 0029 bcbf 7870 cd3f
000002b0: e5e1 bbbe ef36 acbf 79c8 843f fa13 cc3e
000002c0: d9e7 7f3f a26a 623f bc3b 0ec0 1f11 b33e
000002d0: 21b3 8f3f 4078 cc3e 8877 b03f dc13 373f
000002e0: 08cc dc3f f59d 0e3f 1e13 f2be a265 803f
000002f0: 7b01 393f 65f2 183f 3bde e8bd 5cb4 67bf
00000300: a155 993f e070 82bf 1d19 c43f aeb7 05be
00000310: c8ec 503f dd70 bdbe cb76 f93f da1a b0bf
00000320: c325 f73f 55c8 bcbf c371 f03e 324d e7bf
00000330: 946a 7abf 1753 c43d a1e4 053f 90fa e83e
00000340: da68 dcbe 3de3 3b3f 88a4 933f 1a07 9f3f
00000350: 40eb 923f a8fa e73f d922 73be bef0 ddbf
00000360: 111f 56bf 148d fd3d 908e f1bf fdf7 debf
00000370: 9ca7 933d 9372 e7bf 84dd d9bf 8cc9 a9bf
00000380: 5198 f83f cbf1 6ebf be3f 57bf ed7f 9ebd
00000390: ee46 bebf 00bf fa3e 03cd 2cbf b12b 683f
000003a0: a657 b83f a463 ed3f a2c3 1740 09ce 233f
000003b0: 63d3 a4bf 9c31 0c40 5ae0 fc3f 1dc9 59be
000003c0: b240 5bbf c8be 623e 489e 2fbf 8648 6a3c
000003d0: c546 693f d67f ed3e 6c98 09bf 9477 5dbf
000003e0: 602f dabf 0831 fabe d4ba 41bf 9e43 85bf
000003f0: 0fa3 c6bf 27e3 bcbe 20ec 6bbf 28f4 9fbe

momentum_buffer f4 [16]
-0.6700382 -1.581059 1.0187304 1.5681527 -0.761435 1.5789063 2.6267972 -0.86802804
0.15053636 0.15968318 1.0841621 -1.3720503 2.15889 0.76289403 0.8578606 -1.8365697
00000000: a087 2bbf 2460 cabf c265 823f 3ab9 c83f
00000010: 67ed 42bf 9a19 ca3f 721d 2840 1637 5ebf
00000020: 3426 1a3e fd83 233e d3c5 8a3f 589f afbf
00000030: 412b 0a40 064d 433f c19c 5b3f b714 ebbf

momentum_buffer f4 [2, 16]
-4.9431276 4.7892003 -1.2296896 5.7544203 -0.91152054 2.1211164 2.3098857 -3.4041624
6.7620916 -5.276191 2.1837585 2.1001027 5.5264616 -0.23372291 4.3091516 3.6192322
-6.0166907 0.69704884 -3.518967 -6.872299 -0.4648777 -1.5919249 -4.38513 2.6399035
4.9498105 -8.287157 -1.4925208 3.1526036 -5.3303156 0.7012957 -1.546086 -1.6433167
00000000: 1a2e 9ec0 2141 9940 7866 9dbf 3624 b840
00000010: 6959 69bf 5fc0 0740 2bd5 1340 ccdd 59c0
00000020: 0e63 d840 8fd6 a8c0 b3c2 0b40 1568 0640
00000030: c6d8 b040 0f55 6fbe 92e4 8940 80a1 6740
00000040: bb88 c0c0 cb71 323f c136 61c0 e0e9 dbc0
00000050: 7304 eebe 32c4 cbbf fc52 8cc0 2ef4 2840
00000060: d964 9e40 3298 04c1 ec0a bfbf 42c4 4940
00000070: f291 aac0 1d88 333f 25e6 c5bf 3458 d2bf

momentum_buffer f4 [2]
1.2305578 -1.7208712
00000000: eb82 9d3f 8245 dcbf
